program(1.0)
[buildInfo = dict<tensor<string, []>, tensor<string, []>>({{"coremlc-component-MIL", "3510.2.1"}, {"coremlc-version", "3500.32.1"}, {"coremltools-component-torch", "2.5.0"}, {"coremltools-source-dialect", "TorchScript"}, {"coremltools-version", "8.3.0"}})]
{
    func main<ios16>(tensor<int32, [1, 512]> attention_mask, tensor<int32, [1, 512]> input_ids) {
            tensor<int32, []> word_embeds_axis_0 = const()[name = tensor<string, []>("word_embeds_axis_0"), val = tensor<int32, []>(0)];
            tensor<int32, []> word_embeds_batch_dims_0 = const()[name = tensor<string, []>("word_embeds_batch_dims_0"), val = tensor<int32, []>(0)];
            tensor<fp16, [30522, 384]> embeddings_word_embeddings_weight_to_fp16 = const()[name = tensor<string, []>("embeddings_word_embeddings_weight_to_fp16"), val = tensor<fp16, [30522, 384]>(BLOBFILE(path = tensor<string, []>("@model_path/weights/weight.bin"), offset = tensor<uint64, []>(64)))];
            tensor<fp16, [1, 512, 384]> word_embeds_cast_fp16 = gather(axis = word_embeds_axis_0, batch_dims = word_embeds_batch_dims_0, indices = input_ids, x = embeddings_word_embeddings_weight_to_fp16)[name = tensor<string, []>("word_embeds_cast_fp16")];
            tensor<fp16, [1, 512, 384]> position_embeds_to_fp16 = const()[name = tensor<string, []>("position_embeds_to_fp16"), val = tensor<fp16, [1, 512, 384]>(BLOBFILE(path = tensor<string, []>("@model_path/weights/weight.bin"), offset = tensor<uint64, []>(23441024)))];
            tensor<fp16, [1, 512, 384]> var_77_cast_fp16 = add(x = word_embeds_cast_fp16, y = position_embeds_to_fp16)[name = tensor<string, []>("op_77_cast_fp16")];
            tensor<fp16, [1, 512, 384]> token_type_embeds_to_fp16 = const()[name = tensor<string, []>("token_type_embeds_to_fp16"), val = tensor<fp16, [1, 512, 384]>(BLOBFILE(path = tensor<string, []>("@model_path/weights/weight.bin"), offset = tensor<uint64, []>(23834304)))];
            tensor<fp16, [1, 512, 384]> input_5_cast_fp16 = add(x = var_77_cast_fp16, y = token_type_embeds_to_fp16)[name = tensor<string, []>("input_5_cast_fp16")];
            tensor<int32, [1]> input_7_axes_0 = const()[name = tensor<string, []>("input_7_axes_0"), val = tensor<int32, [1]>([-1])];
            tensor<fp16, [384]> embeddings_LayerNorm_weight_to_fp16 = const()[name = tensor<string, []>("embeddings_LayerNorm_weight_to_fp16"), val = tensor<fp16, [384]>(BLOBFILE(path = tensor<string, []>("@model_path/weights/weight.bin"), offset = tensor<uint64, []>(24227584)))];
            tensor<fp16, [384]> embeddings_LayerNorm_bias_to_fp16 = const()[name = tensor<string, []>("embeddings_LayerNorm_bias_to_fp16"), val = tensor<fp16, [384]>(BLOBFILE(path = tensor<string, []>("@model_path/weights/weight.bin"), offset = tensor<uint64, []>(24228416)))];
            tensor<fp16, []> var_81_to_fp16 = const()[name = tensor<string, []>("op_81_to_fp16"), val = tensor<fp16, []>(0x1p-24)];
            tensor<fp16, [1, 512, 384]> input_7_cast_fp16 = layer_norm(axes = input_7_axes_0, beta = embeddings_LayerNorm_bias_to_fp16, epsilon = var_81_to_fp16, gamma = embeddings_LayerNorm_weight_to_fp16, x = input_5_cast_fp16)[name = tensor<string, []>("input_7_cast_fp16")];
            tensor<int32, [1]> var_91_axes_0 = const()[name = tensor<string, []>("op_91_axes_0"), val = tensor<int32, [1]>([1])];
            tensor<int32, [1, 1, 512]> var_91 = expand_dims(axes = var_91_axes_0, x = attention_mask)[name = tensor<string, []>("op_91")];
            tensor<int32, [1]> var_93_axes_0 = const()[name = tensor<string, []>("op_93_axes_0"), val = tensor<int32, [1]>([2])];
            tensor<int32, [1, 1, 1, 512]> var_93 = expand_dims(axes = var_93_axes_0, x = var_91)[name = tensor<string, []>("op_93")];
            tensor<fp16, []> var_99_to_fp16 = const()[name = tensor<string, []>("op_99_to_fp16"), val = tensor<fp16, []>(0x1p+0)];
            tensor<string, []> cast_3_to_fp16_dtype_0 = const()[name = tensor<string, []>("cast_3_to_fp16_dtype_0"), val = tensor<string, []>("fp16")];
            tensor<fp16, [1, 1, 1, 512]> var_93_to_fp16 = cast(dtype = cast_3_to_fp16_dtype_0, x = var_93)[name = tensor<string, []>("cast_79")];
            tensor<fp16, [1, 1, 1, 512]> var_101_cast_fp16 = sub(x = var_99_to_fp16, y = var_93_to_fp16)[name = tensor<string, []>("op_101_cast_fp16")];
            tensor<fp16, []> var_102_to_fp16 = const()[name = tensor<string, []>("op_102_to_fp16"), val = tensor<fp16, []>(-0x1.388p+13)];
            tensor<fp16, [1, 1, 1, 512]> attention_mask_cast_fp16 = mul(x = var_101_cast_fp16, y = var_102_to_fp16)[name = tensor<string, []>("attention_mask_cast_fp16")];
            tensor<int32, []> var_110 = const()[name = tensor<string, []>("op_110"), val = tensor<int32, []>(-1)];
            tensor<fp16, [384, 384]> encoder_layer_0_attention_self_query_weight_to_fp16 = const()[name = tensor<string, []>("encoder_layer_0_attention_self_query_weight_to_fp16"), val = tensor<fp16, [384, 384]>(BLOBFILE(path = tensor<string, []>("@model_path/weights/weight.bin"), offset = tensor<uint64, []>(24229248)))];
            tensor<fp16, [384]> encoder_layer_0_attention_self_query_bias_to_fp16 = const()[name = tensor<string, []>("encoder_layer_0_attention_self_query_bias_to_fp16"), val = tensor<fp16, [384]>(BLOBFILE(path = tensor<string, []>("@model_path/weights/weight.bin"), offset = tensor<uint64, []>(24524224)))];
            tensor<fp16, [1, 512, 384]> linear_0_cast_fp16 = linear(bias = encoder_layer_0_attention_self_query_bias_to_fp16, weight = encoder_layer_0_attention_self_query_weight_to_fp16, x = input_7_cast_fp16)[name = tensor<string, []>("linear_0_cast_fp16")];
            tensor<fp16, [384, 384]> encoder_layer_0_attention_self_key_weight_to_fp16 = const()[name = tensor<string, []>("encoder_layer_0_attention_self_key_weight_to_fp16"), val = tensor<fp16, [384, 384]>(BLOBFILE(path = tensor<string, []>("@model_path/weights/weight.bin"), offset = tensor<uint64, []>(24525056)))];
            tensor<fp16, [384]> encoder_layer_0_attention_self_key_bias_to_fp16 = const()[name = tensor<string, []>("encoder_layer_0_attention_self_key_bias_to_fp16"), val = tensor<fp16, [384]>(BLOBFILE(path = tensor<string, []>("@model_path/weights/weight.bin"), offset = tensor<uint64, []>(24820032)))];
            tensor<fp16, [1, 512, 384]> linear_1_cast_fp16 = linear(bias = encoder_layer_0_attention_self_key_bias_to_fp16, weight = encoder_layer_0_attention_self_key_weight_to_fp16, x = input_7_cast_fp16)[name = tensor<string, []>("linear_1_cast_fp16")];
            tensor<int32, [4]> var_135 = const()[name = tensor<string, []>("op_135"), val = tensor<int32, [4]>([1, 512, 12, 32])];
            tensor<fp16, [1, 512, 12, 32]> x_3_cast_fp16 = reshape(shape = var_135, x = linear_1_cast_fp16)[name = tensor<string, []>("x_3_cast_fp16")];
            tensor<fp16, [384, 384]> encoder_layer_0_attention_self_value_weight_to_fp16 = const()[name = tensor<string, []>("encoder_layer_0_attention_self_value_weight_to_fp16"), val = tensor<fp16, [384, 384]>(BLOBFILE(path = tensor<string, []>("@model_path/weights/weight.bin"), offset = tensor<uint64, []>(24820864)))];
            tensor<fp16, [384]> encoder_layer_0_attention_self_value_bias_to_fp16 = const()[name = tensor<string, []>("encoder_layer_0_attention_self_value_bias_to_fp16"), val = tensor<fp16, [384]>(BLOBFILE(path = tensor<string, []>("@model_path/weights/weight.bin"), offset = tensor<uint64, []>(25115840)))];
            tensor<fp16, [1, 512, 384]> linear_2_cast_fp16 = linear(bias = encoder_layer_0_attention_self_value_bias_to_fp16, weight = encoder_layer_0_attention_self_value_weight_to_fp16, x = input_7_cast_fp16)[name = tensor<string, []>("linear_2_cast_fp16")];
            tensor<int32, [4]> var_144 = const()[name = tensor<string, []>("op_144"), val = tensor<int32, [4]>([1, 512, 12, 32])];
            tensor<fp16, [1, 512, 12, 32]> x_7_cast_fp16 = reshape(shape = var_144, x = linear_2_cast_fp16)[name = tensor<string, []>("x_7_cast_fp16")];
            tensor<int32, [4]> var_146 = const()[name = tensor<string, []>("op_146"), val = tensor<int32, [4]>([0, 2, 1, 3])];
            tensor<int32, [4]> var_150 = const()[name = tensor<string, []>("op_150"), val = tensor<int32, [4]>([1, 512, 12, 32])];
            tensor<fp16, [1, 512, 12, 32]> x_11_cast_fp16 = reshape(shape = var_150, x = linear_0_cast_fp16)[name = tensor<string, []>("x_11_cast_fp16")];
            tensor<bool, []> attention_scores_1_transpose_x_0 = const()[name = tensor<string, []>("attention_scores_1_transpose_x_0"), val = tensor<bool, []>(false)];
            tensor<bool, []> attention_scores_1_transpose_y_0 = const()[name = tensor<string, []>("attention_scores_1_transpose_y_0"), val = tensor<bool, []>(false)];
            tensor<int32, [4]> transpose_36_perm_0 = const()[name = tensor<string, []>("transpose_36_perm_0"), val = tensor<int32, [4]>([0, 2, -3, -1])];
            tensor<int32, [4]> transpose_37_perm_0 = const()[name = tensor<string, []>("transpose_37_perm_0"), val = tensor<int32, [4]>([0, 2, -1, -3])];
            tensor<fp16, [1, 12, 32, 512]> transpose_37 = transpose(perm = transpose_37_perm_0, x = x_3_cast_fp16)[name = tensor<string, []>("transpose_105")];
            tensor<fp16, [1, 12, 512, 32]> transpose_36 = transpose(perm = transpose_36_perm_0, x = x_11_cast_fp16)[name = tensor<string, []>("transpose_106")];
            tensor<fp16, [1, 12, 512, 512]> attention_scores_1_cast_fp16 = matmul(transpose_x = attention_scores_1_transpose_x_0, transpose_y = attention_scores_1_transpose_y_0, x = transpose_36, y = transpose_37)[name = tensor<string, []>("attention_scores_1_cast_fp16")];
            tensor<fp16, []> _inversed_attention_scores_3_y_0_to_fp16 = const()[name = tensor<string, []>("_inversed_attention_scores_3_y_0_to_fp16"), val = tensor<fp16, []>(0x1.6ap-3)];
            tensor<fp16, [1, 12, 512, 512]> _inversed_attention_scores_3_cast_fp16 = mul(x = attention_scores_1_cast_fp16, y = _inversed_attention_scores_3_y_0_to_fp16)[name = tensor<string, []>("_inversed_attention_scores_3_cast_fp16")];
            tensor<fp16, [1, 12, 512, 512]> input_11_cast_fp16 = add(x = _inversed_attention_scores_3_cast_fp16, y = attention_mask_cast_fp16)[name = tensor<string, []>("input_11_cast_fp16")];
            tensor<fp16, [1, 12, 512, 512]> input_13_cast_fp16 = softmax(axis = var_110, x = input_11_cast_fp16)[name = tensor<string, []>("input_13_cast_fp16")];
            tensor<bool, []> context_layer_1_transpose_x_0 = const()[name = tensor<string, []>("context_layer_1_transpose_x_0"), val = tensor<bool, []>(false)];
            tensor<bool, []> context_layer_1_transpose_y_0 = const()[name = tensor<string, []>("context_layer_1_transpose_y_0"), val = tensor<bool, []>(false)];
            tensor<fp16, [1, 12, 512, 32]> value_layer_1_cast_fp16 = transpose(perm = var_146, x = x_7_cast_fp16)[name = tensor<string, []>("transpose_107")];
            tensor<fp16, [1, 12, 512, 32]> context_layer_1_cast_fp16 = matmul(transpose_x = context_layer_1_transpose_x_0, transpose_y = context_layer_1_transpose_y_0, x = input_13_cast_fp16, y = value_layer_1_cast_fp16)[name = tensor<string, []>("context_layer_1_cast_fp16")];
            tensor<int32, [4]> var_162 = const()[name = tensor<string, []>("op_162"), val = tensor<int32, [4]>([0, 2, 1, 3])];
            tensor<int32, [3]> var_167 = const()[name = tensor<string, []>("op_167"), val = tensor<int32, [3]>([1, 512, 384])];
            tensor<fp16, [1, 512, 12, 32]> var_163_cast_fp16 = transpose(perm = var_162, x = context_layer_1_cast_fp16)[name = tensor<string, []>("transpose_104")];
            tensor<fp16, [1, 512, 384]> input_15_cast_fp16 = reshape(shape = var_167, x = var_163_cast_fp16)[name = tensor<string, []>("input_15_cast_fp16")];
            tensor<fp16, [384, 384]> encoder_layer_0_attention_output_dense_weight_to_fp16 = const()[name = tensor<string, []>("encoder_layer_0_attention_output_dense_weight_to_fp16"), val = tensor<fp16, [384, 384]>(BLOBFILE(path = tensor<string, []>("@model_path/weights/weight.bin"), offset = tensor<uint64, []>(25116672)))];
            tensor<fp16, [384]> encoder_layer_0_attention_output_dense_bias_to_fp16 = const()[name = tensor<string, []>("encoder_layer_0_attention_output_dense_bias_to_fp16"), val = tensor<fp16, [384]>(BLOBFILE(path = tensor<string, []>("@model_path/weights/weight.bin"), offset = tensor<uint64, []>(25411648)))];
            tensor<fp16, [1, 512, 384]> linear_3_cast_fp16 = linear(bias = encoder_layer_0_attention_output_dense_bias_to_fp16, weight = encoder_layer_0_attention_output_dense_weight_to_fp16, x = input_15_cast_fp16)[name = tensor<string, []>("linear_3_cast_fp16")];
            tensor<fp16, [1, 512, 384]> input_19_cast_fp16 = add(x = linear_3_cast_fp16, y = input_7_cast_fp16)[name = tensor<string, []>("input_19_cast_fp16")];
            tensor<int32, [1]> input_21_axes_0 = const()[name = tensor<string, []>("input_21_axes_0"), val = tensor<int32, [1]>([-1])];
            tensor<fp16, [384]> encoder_layer_0_attention_output_LayerNorm_weight_to_fp16 = const()[name = tensor<string, []>("encoder_layer_0_attention_output_LayerNorm_weight_to_fp16"), val = tensor<fp16, [384]>(BLOBFILE(path = tensor<string, []>("@model_path/weights/weight.bin"), offset = tensor<uint64, []>(25412480)))];
            tensor<fp16, [384]> encoder_layer_0_attention_output_LayerNorm_bias_to_fp16 = const()[name = tensor<string, []>("encoder_layer_0_attention_output_LayerNorm_bias_to_fp16"), val = tensor<fp16, [384]>(BLOBFILE(path = tensor<string, []>("@model_path/weights/weight.bin"), offset = tensor<uint64, []>(25413312)))];
            tensor<fp16, []> var_117_to_fp16 = const()[name = tensor<string, []>("op_117_to_fp16"), val = tensor<fp16, []>(0x1p-24)];
            tensor<fp16, [1, 512, 384]> input_21_cast_fp16 = layer_norm(axes = input_21_axes_0, beta = encoder_layer_0_attention_output_LayerNorm_bias_to_fp16, epsilon = var_117_to_fp16, gamma = encoder_layer_0_attention_output_LayerNorm_weight_to_fp16, x = input_19_cast_fp16)[name = tensor<string, []>("input_21_cast_fp16")];
            tensor<fp16, [1536, 384]> encoder_layer_0_intermediate_dense_weight_to_fp16 = const()[name = tensor<string, []>("encoder_layer_0_intermediate_dense_weight_to_fp16"), val = tensor<fp16, [1536, 384]>(BLOBFILE(path = tensor<string, []>("@model_path/weights/weight.bin"), offset = tensor<uint64, []>(25414144)))];
            tensor<fp16, [1536]> encoder_layer_0_intermediate_dense_bias_to_fp16 = const()[name = tensor<string, []>("encoder_layer_0_intermediate_dense_bias_to_fp16"), val = tensor<fp16, [1536]>(BLOBFILE(path = tensor<string, []>("@model_path/weights/weight.bin"), offset = tensor<uint64, []>(26593856)))];
            tensor<fp16, [1, 512, 1536]> linear_4_cast_fp16 = linear(bias = encoder_layer_0_intermediate_dense_bias_to_fp16, weight = encoder_layer_0_intermediate_dense_weight_to_fp16, x = input_21_cast_fp16)[name = tensor<string, []>("linear_4_cast_fp16")];
            tensor<string, []> input_25_mode_0 = const()[name = tensor<string, []>("input_25_mode_0"), val = tensor<string, []>("EXACT")];
            tensor<fp16, [1, 512, 1536]> input_25_cast_fp16 = gelu(mode = input_25_mode_0, x = linear_4_cast_fp16)[name = tensor<string, []>("input_25_cast_fp16")];
            tensor<fp16, [384, 1536]> encoder_layer_0_output_dense_weight_to_fp16 = const()[name = tensor<string, []>("encoder_layer_0_output_dense_weight_to_fp16"), val = tensor<fp16, [384, 1536]>(BLOBFILE(path = tensor<string, []>("@model_path/weights/weight.bin"), offset = tensor<uint64, []>(26596992)))];
            tensor<fp16, [384]> encoder_layer_0_output_dense_bias_to_fp16 = const()[name = tensor<string, []>("encoder_layer_0_output_dense_bias_to_fp16"), val = tensor<fp16, [384]>(BLOBFILE(path = tensor<string, []>("@model_path/weights/weight.bin"), offset = tensor<uint64, []>(27776704)))];
            tensor<fp16, [1, 512, 384]> linear_5_cast_fp16 = linear(bias = encoder_layer_0_output_dense_bias_to_fp16, weight = encoder_layer_0_output_dense_weight_to_fp16, x = input_25_cast_fp16)[name = tensor<string, []>("linear_5_cast_fp16")];
            tensor<fp16, [1, 512, 384]> input_29_cast_fp16 = add(x = linear_5_cast_fp16, y = input_21_cast_fp16)[name = tensor<string, []>("input_29_cast_fp16")];
            tensor<int32, [1]> input_31_axes_0 = const()[name = tensor<string, []>("input_31_axes_0"), val = tensor<int32, [1]>([-1])];
            tensor<fp16, [384]> encoder_layer_0_output_LayerNorm_weight_to_fp16 = const()[name = tensor<string, []>("encoder_layer_0_output_LayerNorm_weight_to_fp16"), val = tensor<fp16, [384]>(BLOBFILE(path = tensor<string, []>("@model_path/weights/weight.bin"), offset = tensor<uint64, []>(27777536)))];
            tensor<fp16, [384]> encoder_layer_0_output_LayerNorm_bias_to_fp16 = const()[name = tensor<string, []>("encoder_layer_0_output_LayerNorm_bias_to_fp16"), val = tensor<fp16, [384]>(BLOBFILE(path = tensor<string, []>("@model_path/weights/weight.bin"), offset = tensor<uint64, []>(27778368)))];
            tensor<fp16, [1, 512, 384]> input_31_cast_fp16 = layer_norm(axes = input_31_axes_0, beta = encoder_layer_0_output_LayerNorm_bias_to_fp16, epsilon = var_117_to_fp16, gamma = encoder_layer_0_output_LayerNorm_weight_to_fp16, x = input_29_cast_fp16)[name = tensor<string, []>("input_31_cast_fp16")];
            tensor<int32, []> var_202 = const()[name = tensor<string, []>("op_202"), val = tensor<int32, []>(-1)];
            tensor<fp16, [384, 384]> encoder_layer_1_attention_self_query_weight_to_fp16 = const()[name = tensor<string, []>("encoder_layer_1_attention_self_query_weight_to_fp16"), val = tensor<fp16, [384, 384]>(BLOBFILE(path = tensor<string, []>("@model_path/weights/weight.bin"), offset = tensor<uint64, []>(27779200)))];
            tensor<fp16, [384]> encoder_layer_1_attention_self_query_bias_to_fp16 = const()[name = tensor<string, []>("encoder_layer_1_attention_self_query_bias_to_fp16"), val = tensor<fp16, [384]>(BLOBFILE(path = tensor<string, []>("@model_path/weights/weight.bin"), offset = tensor<uint64, []>(28074176)))];
            tensor<fp16, [1, 512, 384]> linear_6_cast_fp16 = linear(bias = encoder_layer_1_attention_self_query_bias_to_fp16, weight = encoder_layer_1_attention_self_query_weight_to_fp16, x = input_31_cast_fp16)[name = tensor<string, []>("linear_6_cast_fp16")];
            tensor<fp16, [384, 384]> encoder_layer_1_attention_self_key_weight_to_fp16 = const()[name = tensor<string, []>("encoder_layer_1_attention_self_key_weight_to_fp16"), val = tensor<fp16, [384, 384]>(BLOBFILE(path = tensor<string, []>("@model_path/weights/weight.bin"), offset = tensor<uint64, []>(28075008)))];
            tensor<fp16, [384]> encoder_layer_1_attention_self_key_bias_to_fp16 = const()[name = tensor<string, []>("encoder_layer_1_attention_self_key_bias_to_fp16"), val = tensor<fp16, [384]>(BLOBFILE(path = tensor<string, []>("@model_path/weights/weight.bin"), offset = tensor<uint64, []>(28369984)))];
            tensor<fp16, [1, 512, 384]> linear_7_cast_fp16 = linear(bias = encoder_layer_1_attention_self_key_bias_to_fp16, weight = encoder_layer_1_attention_self_key_weight_to_fp16, x = input_31_cast_fp16)[name = tensor<string, []>("linear_7_cast_fp16")];
            tensor<int32, [4]> var_227 = const()[name = tensor<string, []>("op_227"), val = tensor<int32, [4]>([1, 512, 12, 32])];
            tensor<fp16, [1, 512, 12, 32]> x_15_cast_fp16 = reshape(shape = var_227, x = linear_7_cast_fp16)[name = tensor<string, []>("x_15_cast_fp16")];
            tensor<fp16, [384, 384]> encoder_layer_1_attention_self_value_weight_to_fp16 = const()[name = tensor<string, []>("encoder_layer_1_attention_self_value_weight_to_fp16"), val = tensor<fp16, [384, 384]>(BLOBFILE(path = tensor<string, []>("@model_path/weights/weight.bin"), offset = tensor<uint64, []>(28370816)))];
            tensor<fp16, [384]> encoder_layer_1_attention_self_value_bias_to_fp16 = const()[name = tensor<string, []>("encoder_layer_1_attention_self_value_bias_to_fp16"), val = tensor<fp16, [384]>(BLOBFILE(path = tensor<string, []>("@model_path/weights/weight.bin"), offset = tensor<uint64, []>(28665792)))];
            tensor<fp16, [1, 512, 384]> linear_8_cast_fp16 = linear(bias = encoder_layer_1_attention_self_value_bias_to_fp16, weight = encoder_layer_1_attention_self_value_weight_to_fp16, x = input_31_cast_fp16)[name = tensor<string, []>("linear_8_cast_fp16")];
            tensor<int32, [4]> var_236 = const()[name = tensor<string, []>("op_236"), val = tensor<int32, [4]>([1, 512, 12, 32])];
            tensor<fp16, [1, 512, 12, 32]> x_19_cast_fp16 = reshape(shape = var_236, x = linear_8_cast_fp16)[name = tensor<string, []>("x_19_cast_fp16")];
            tensor<int32, [4]> var_238 = const()[name = tensor<string, []>("op_238"), val = tensor<int32, [4]>([0, 2, 1, 3])];
            tensor<int32, [4]> var_242 = const()[name = tensor<string, []>("op_242"), val = tensor<int32, [4]>([1, 512, 12, 32])];
            tensor<fp16, [1, 512, 12, 32]> x_23_cast_fp16 = reshape(shape = var_242, x = linear_6_cast_fp16)[name = tensor<string, []>("x_23_cast_fp16")];
            tensor<bool, []> attention_scores_5_transpose_x_0 = const()[name = tensor<string, []>("attention_scores_5_transpose_x_0"), val = tensor<bool, []>(false)];
            tensor<bool, []> attention_scores_5_transpose_y_0 = const()[name = tensor<string, []>("attention_scores_5_transpose_y_0"), val = tensor<bool, []>(false)];
            tensor<int32, [4]> transpose_38_perm_0 = const()[name = tensor<string, []>("transpose_38_perm_0"), val = tensor<int32, [4]>([0, 2, -3, -1])];
            tensor<int32, [4]> transpose_39_perm_0 = const()[name = tensor<string, []>("transpose_39_perm_0"), val = tensor<int32, [4]>([0, 2, -1, -3])];
            tensor<fp16, [1, 12, 32, 512]> transpose_39 = transpose(perm = transpose_39_perm_0, x = x_15_cast_fp16)[name = tensor<string, []>("transpose_101")];
            tensor<fp16, [1, 12, 512, 32]> transpose_38 = transpose(perm = transpose_38_perm_0, x = x_23_cast_fp16)[name = tensor<string, []>("transpose_102")];
            tensor<fp16, [1, 12, 512, 512]> attention_scores_5_cast_fp16 = matmul(transpose_x = attention_scores_5_transpose_x_0, transpose_y = attention_scores_5_transpose_y_0, x = transpose_38, y = transpose_39)[name = tensor<string, []>("attention_scores_5_cast_fp16")];
            tensor<fp16, []> _inversed_attention_scores_7_y_0_to_fp16 = const()[name = tensor<string, []>("_inversed_attention_scores_7_y_0_to_fp16"), val = tensor<fp16, []>(0x1.6ap-3)];
            tensor<fp16, [1, 12, 512, 512]> _inversed_attention_scores_7_cast_fp16 = mul(x = attention_scores_5_cast_fp16, y = _inversed_attention_scores_7_y_0_to_fp16)[name = tensor<string, []>("_inversed_attention_scores_7_cast_fp16")];
            tensor<fp16, [1, 12, 512, 512]> input_33_cast_fp16 = add(x = _inversed_attention_scores_7_cast_fp16, y = attention_mask_cast_fp16)[name = tensor<string, []>("input_33_cast_fp16")];
            tensor<fp16, [1, 12, 512, 512]> input_35_cast_fp16 = softmax(axis = var_202, x = input_33_cast_fp16)[name = tensor<string, []>("input_35_cast_fp16")];
            tensor<bool, []> context_layer_5_transpose_x_0 = const()[name = tensor<string, []>("context_layer_5_transpose_x_0"), val = tensor<bool, []>(false)];
            tensor<bool, []> context_layer_5_transpose_y_0 = const()[name = tensor<string, []>("context_layer_5_transpose_y_0"), val = tensor<bool, []>(false)];
            tensor<fp16, [1, 12, 512, 32]> value_layer_3_cast_fp16 = transpose(perm = var_238, x = x_19_cast_fp16)[name = tensor<string, []>("transpose_103")];
            tensor<fp16, [1, 12, 512, 32]> context_layer_5_cast_fp16 = matmul(transpose_x = context_layer_5_transpose_x_0, transpose_y = context_layer_5_transpose_y_0, x = input_35_cast_fp16, y = value_layer_3_cast_fp16)[name = tensor<string, []>("context_layer_5_cast_fp16")];
            tensor<int32, [4]> var_254 = const()[name = tensor<string, []>("op_254"), val = tensor<int32, [4]>([0, 2, 1, 3])];
            tensor<int32, [3]> var_259 = const()[name = tensor<string, []>("op_259"), val = tensor<int32, [3]>([1, 512, 384])];
            tensor<fp16, [1, 512, 12, 32]> var_255_cast_fp16 = transpose(perm = var_254, x = context_layer_5_cast_fp16)[name = tensor<string, []>("transpose_100")];
            tensor<fp16, [1, 512, 384]> input_37_cast_fp16 = reshape(shape = var_259, x = var_255_cast_fp16)[name = tensor<string, []>("input_37_cast_fp16")];
            tensor<fp16, [384, 384]> encoder_layer_1_attention_output_dense_weight_to_fp16 = const()[name = tensor<string, []>("encoder_layer_1_attention_output_dense_weight_to_fp16"), val = tensor<fp16, [384, 384]>(BLOBFILE(path = tensor<string, []>("@model_path/weights/weight.bin"), offset = tensor<uint64, []>(28666624)))];
            tensor<fp16, [384]> encoder_layer_1_attention_output_dense_bias_to_fp16 = const()[name = tensor<string, []>("encoder_layer_1_attention_output_dense_bias_to_fp16"), val = tensor<fp16, [384]>(BLOBFILE(path = tensor<string, []>("@model_path/weights/weight.bin"), offset = tensor<uint64, []>(28961600)))];
            tensor<fp16, [1, 512, 384]> linear_9_cast_fp16 = linear(bias = encoder_layer_1_attention_output_dense_bias_to_fp16, weight = encoder_layer_1_attention_output_dense_weight_to_fp16, x = input_37_cast_fp16)[name = tensor<string, []>("linear_9_cast_fp16")];
            tensor<fp16, [1, 512, 384]> input_41_cast_fp16 = add(x = linear_9_cast_fp16, y = input_31_cast_fp16)[name = tensor<string, []>("input_41_cast_fp16")];
            tensor<int32, [1]> input_43_axes_0 = const()[name = tensor<string, []>("input_43_axes_0"), val = tensor<int32, [1]>([-1])];
            tensor<fp16, [384]> encoder_layer_1_attention_output_LayerNorm_weight_to_fp16 = const()[name = tensor<string, []>("encoder_layer_1_attention_output_LayerNorm_weight_to_fp16"), val = tensor<fp16, [384]>(BLOBFILE(path = tensor<string, []>("@model_path/weights/weight.bin"), offset = tensor<uint64, []>(28962432)))];
            tensor<fp16, [384]> encoder_layer_1_attention_output_LayerNorm_bias_to_fp16 = const()[name = tensor<string, []>("encoder_layer_1_attention_output_LayerNorm_bias_to_fp16"), val = tensor<fp16, [384]>(BLOBFILE(path = tensor<string, []>("@model_path/weights/weight.bin"), offset = tensor<uint64, []>(28963264)))];
            tensor<fp16, []> var_209_to_fp16 = const()[name = tensor<string, []>("op_209_to_fp16"), val = tensor<fp16, []>(0x1p-24)];
            tensor<fp16, [1, 512, 384]> input_43_cast_fp16 = layer_norm(axes = input_43_axes_0, beta = encoder_layer_1_attention_output_LayerNorm_bias_to_fp16, epsilon = var_209_to_fp16, gamma = encoder_layer_1_attention_output_LayerNorm_weight_to_fp16, x = input_41_cast_fp16)[name = tensor<string, []>("input_43_cast_fp16")];
            tensor<fp16, [1536, 384]> encoder_layer_1_intermediate_dense_weight_to_fp16 = const()[name = tensor<string, []>("encoder_layer_1_intermediate_dense_weight_to_fp16"), val = tensor<fp16, [1536, 384]>(BLOBFILE(path = tensor<string, []>("@model_path/weights/weight.bin"), offset = tensor<uint64, []>(28964096)))];
            tensor<fp16, [1536]> encoder_layer_1_intermediate_dense_bias_to_fp16 = const()[name = tensor<string, []>("encoder_layer_1_intermediate_dense_bias_to_fp16"), val = tensor<fp16, [1536]>(BLOBFILE(path = tensor<string, []>("@model_path/weights/weight.bin"), offset = tensor<uint64, []>(30143808)))];
            tensor<fp16, [1, 512, 1536]> linear_10_cast_fp16 = linear(bias = encoder_layer_1_intermediate_dense_bias_to_fp16, weight = encoder_layer_1_intermediate_dense_weight_to_fp16, x = input_43_cast_fp16)[name = tensor<string, []>("linear_10_cast_fp16")];
            tensor<string, []> input_47_mode_0 = const()[name = tensor<string, []>("input_47_mode_0"), val = tensor<string, []>("EXACT")];
            tensor<fp16, [1, 512, 1536]> input_47_cast_fp16 = gelu(mode = input_47_mode_0, x = linear_10_cast_fp16)[name = tensor<string, []>("input_47_cast_fp16")];
            tensor<fp16, [384, 1536]> encoder_layer_1_output_dense_weight_to_fp16 = const()[name = tensor<string, []>("encoder_layer_1_output_dense_weight_to_fp16"), val = tensor<fp16, [384, 1536]>(BLOBFILE(path = tensor<string, []>("@model_path/weights/weight.bin"), offset = tensor<uint64, []>(30146944)))];
            tensor<fp16, [384]> encoder_layer_1_output_dense_bias_to_fp16 = const()[name = tensor<string, []>("encoder_layer_1_output_dense_bias_to_fp16"), val = tensor<fp16, [384]>(BLOBFILE(path = tensor<string, []>("@model_path/weights/weight.bin"), offset = tensor<uint64, []>(31326656)))];
            tensor<fp16, [1, 512, 384]> linear_11_cast_fp16 = linear(bias = encoder_layer_1_output_dense_bias_to_fp16, weight = encoder_layer_1_output_dense_weight_to_fp16, x = input_47_cast_fp16)[name = tensor<string, []>("linear_11_cast_fp16")];
            tensor<fp16, [1, 512, 384]> input_51_cast_fp16 = add(x = linear_11_cast_fp16, y = input_43_cast_fp16)[name = tensor<string, []>("input_51_cast_fp16")];
            tensor<int32, [1]> input_53_axes_0 = const()[name = tensor<string, []>("input_53_axes_0"), val = tensor<int32, [1]>([-1])];
            tensor<fp16, [384]> encoder_layer_1_output_LayerNorm_weight_to_fp16 = const()[name = tensor<string, []>("encoder_layer_1_output_LayerNorm_weight_to_fp16"), val = tensor<fp16, [384]>(BLOBFILE(path = tensor<string, []>("@model_path/weights/weight.bin"), offset = tensor<uint64, []>(31327488)))];
            tensor<fp16, [384]> encoder_layer_1_output_LayerNorm_bias_to_fp16 = const()[name = tensor<string, []>("encoder_layer_1_output_LayerNorm_bias_to_fp16"), val = tensor<fp16, [384]>(BLOBFILE(path = tensor<string, []>("@model_path/weights/weight.bin"), offset = tensor<uint64, []>(31328320)))];
            tensor<fp16, [1, 512, 384]> input_53_cast_fp16 = layer_norm(axes = input_53_axes_0, beta = encoder_layer_1_output_LayerNorm_bias_to_fp16, epsilon = var_209_to_fp16, gamma = encoder_layer_1_output_LayerNorm_weight_to_fp16, x = input_51_cast_fp16)[name = tensor<string, []>("input_53_cast_fp16")];
            tensor<int32, []> var_294 = const()[name = tensor<string, []>("op_294"), val = tensor<int32, []>(-1)];
            tensor<fp16, [384, 384]> encoder_layer_2_attention_self_query_weight_to_fp16 = const()[name = tensor<string, []>("encoder_layer_2_attention_self_query_weight_to_fp16"), val = tensor<fp16, [384, 384]>(BLOBFILE(path = tensor<string, []>("@model_path/weights/weight.bin"), offset = tensor<uint64, []>(31329152)))];
            tensor<fp16, [384]> encoder_layer_2_attention_self_query_bias_to_fp16 = const()[name = tensor<string, []>("encoder_layer_2_attention_self_query_bias_to_fp16"), val = tensor<fp16, [384]>(BLOBFILE(path = tensor<string, []>("@model_path/weights/weight.bin"), offset = tensor<uint64, []>(31624128)))];
            tensor<fp16, [1, 512, 384]> linear_12_cast_fp16 = linear(bias = encoder_layer_2_attention_self_query_bias_to_fp16, weight = encoder_layer_2_attention_self_query_weight_to_fp16, x = input_53_cast_fp16)[name = tensor<string, []>("linear_12_cast_fp16")];
            tensor<fp16, [384, 384]> encoder_layer_2_attention_self_key_weight_to_fp16 = const()[name = tensor<string, []>("encoder_layer_2_attention_self_key_weight_to_fp16"), val = tensor<fp16, [384, 384]>(BLOBFILE(path = tensor<string, []>("@model_path/weights/weight.bin"), offset = tensor<uint64, []>(31624960)))];
            tensor<fp16, [384]> encoder_layer_2_attention_self_key_bias_to_fp16 = const()[name = tensor<string, []>("encoder_layer_2_attention_self_key_bias_to_fp16"), val = tensor<fp16, [384]>(BLOBFILE(path = tensor<string, []>("@model_path/weights/weight.bin"), offset = tensor<uint64, []>(31919936)))];
            tensor<fp16, [1, 512, 384]> linear_13_cast_fp16 = linear(bias = encoder_layer_2_attention_self_key_bias_to_fp16, weight = encoder_layer_2_attention_self_key_weight_to_fp16, x = input_53_cast_fp16)[name = tensor<string, []>("linear_13_cast_fp16")];
            tensor<int32, [4]> var_319 = const()[name = tensor<string, []>("op_319"), val = tensor<int32, [4]>([1, 512, 12, 32])];
            tensor<fp16, [1, 512, 12, 32]> x_27_cast_fp16 = reshape(shape = var_319, x = linear_13_cast_fp16)[name = tensor<string, []>("x_27_cast_fp16")];
            tensor<fp16, [384, 384]> encoder_layer_2_attention_self_value_weight_to_fp16 = const()[name = tensor<string, []>("encoder_layer_2_attention_self_value_weight_to_fp16"), val = tensor<fp16, [384, 384]>(BLOBFILE(path = tensor<string, []>("@model_path/weights/weight.bin"), offset = tensor<uint64, []>(31920768)))];
            tensor<fp16, [384]> encoder_layer_2_attention_self_value_bias_to_fp16 = const()[name = tensor<string, []>("encoder_layer_2_attention_self_value_bias_to_fp16"), val = tensor<fp16, [384]>(BLOBFILE(path = tensor<string, []>("@model_path/weights/weight.bin"), offset = tensor<uint64, []>(32215744)))];
            tensor<fp16, [1, 512, 384]> linear_14_cast_fp16 = linear(bias = encoder_layer_2_attention_self_value_bias_to_fp16, weight = encoder_layer_2_attention_self_value_weight_to_fp16, x = input_53_cast_fp16)[name = tensor<string, []>("linear_14_cast_fp16")];
            tensor<int32, [4]> var_328 = const()[name = tensor<string, []>("op_328"), val = tensor<int32, [4]>([1, 512, 12, 32])];
            tensor<fp16, [1, 512, 12, 32]> x_31_cast_fp16 = reshape(shape = var_328, x = linear_14_cast_fp16)[name = tensor<string, []>("x_31_cast_fp16")];
            tensor<int32, [4]> var_330 = const()[name = tensor<string, []>("op_330"), val = tensor<int32, [4]>([0, 2, 1, 3])];
            tensor<int32, [4]> var_334 = const()[name = tensor<string, []>("op_334"), val = tensor<int32, [4]>([1, 512, 12, 32])];
            tensor<fp16, [1, 512, 12, 32]> x_35_cast_fp16 = reshape(shape = var_334, x = linear_12_cast_fp16)[name = tensor<string, []>("x_35_cast_fp16")];
            tensor<bool, []> attention_scores_9_transpose_x_0 = const()[name = tensor<string, []>("attention_scores_9_transpose_x_0"), val = tensor<bool, []>(false)];
            tensor<bool, []> attention_scores_9_transpose_y_0 = const()[name = tensor<string, []>("attention_scores_9_transpose_y_0"), val = tensor<bool, []>(false)];
            tensor<int32, [4]> transpose_40_perm_0 = const()[name = tensor<string, []>("transpose_40_perm_0"), val = tensor<int32, [4]>([0, 2, -3, -1])];
            tensor<int32, [4]> transpose_41_perm_0 = const()[name = tensor<string, []>("transpose_41_perm_0"), val = tensor<int32, [4]>([0, 2, -1, -3])];
            tensor<fp16, [1, 12, 32, 512]> transpose_41 = transpose(perm = transpose_41_perm_0, x = x_27_cast_fp16)[name = tensor<string, []>("transpose_97")];
            tensor<fp16, [1, 12, 512, 32]> transpose_40 = transpose(perm = transpose_40_perm_0, x = x_35_cast_fp16)[name = tensor<string, []>("transpose_98")];
            tensor<fp16, [1, 12, 512, 512]> attention_scores_9_cast_fp16 = matmul(transpose_x = attention_scores_9_transpose_x_0, transpose_y = attention_scores_9_transpose_y_0, x = transpose_40, y = transpose_41)[name = tensor<string, []>("attention_scores_9_cast_fp16")];
            tensor<fp16, []> _inversed_attention_scores_11_y_0_to_fp16 = const()[name = tensor<string, []>("_inversed_attention_scores_11_y_0_to_fp16"), val = tensor<fp16, []>(0x1.6ap-3)];
            tensor<fp16, [1, 12, 512, 512]> _inversed_attention_scores_11_cast_fp16 = mul(x = attention_scores_9_cast_fp16, y = _inversed_attention_scores_11_y_0_to_fp16)[name = tensor<string, []>("_inversed_attention_scores_11_cast_fp16")];
            tensor<fp16, [1, 12, 512, 512]> input_55_cast_fp16 = add(x = _inversed_attention_scores_11_cast_fp16, y = attention_mask_cast_fp16)[name = tensor<string, []>("input_55_cast_fp16")];
            tensor<fp16, [1, 12, 512, 512]> input_57_cast_fp16 = softmax(axis = var_294, x = input_55_cast_fp16)[name = tensor<string, []>("input_57_cast_fp16")];
            tensor<bool, []> context_layer_9_transpose_x_0 = const()[name = tensor<string, []>("context_layer_9_transpose_x_0"), val = tensor<bool, []>(false)];
            tensor<bool, []> context_layer_9_transpose_y_0 = const()[name = tensor<string, []>("context_layer_9_transpose_y_0"), val = tensor<bool, []>(false)];
            tensor<fp16, [1, 12, 512, 32]> value_layer_5_cast_fp16 = transpose(perm = var_330, x = x_31_cast_fp16)[name = tensor<string, []>("transpose_99")];
            tensor<fp16, [1, 12, 512, 32]> context_layer_9_cast_fp16 = matmul(transpose_x = context_layer_9_transpose_x_0, transpose_y = context_layer_9_transpose_y_0, x = input_57_cast_fp16, y = value_layer_5_cast_fp16)[name = tensor<string, []>("context_layer_9_cast_fp16")];
            tensor<int32, [4]> var_346 = const()[name = tensor<string, []>("op_346"), val = tensor<int32, [4]>([0, 2, 1, 3])];
            tensor<int32, [3]> var_351 = const()[name = tensor<string, []>("op_351"), val = tensor<int32, [3]>([1, 512, 384])];
            tensor<fp16, [1, 512, 12, 32]> var_347_cast_fp16 = transpose(perm = var_346, x = context_layer_9_cast_fp16)[name = tensor<string, []>("transpose_96")];
            tensor<fp16, [1, 512, 384]> input_59_cast_fp16 = reshape(shape = var_351, x = var_347_cast_fp16)[name = tensor<string, []>("input_59_cast_fp16")];
            tensor<fp16, [384, 384]> encoder_layer_2_attention_output_dense_weight_to_fp16 = const()[name = tensor<string, []>("encoder_layer_2_attention_output_dense_weight_to_fp16"), val = tensor<fp16, [384, 384]>(BLOBFILE(path = tensor<string, []>("@model_path/weights/weight.bin"), offset = tensor<uint64, []>(32216576)))];
            tensor<fp16, [384]> encoder_layer_2_attention_output_dense_bias_to_fp16 = const()[name = tensor<string, []>("encoder_layer_2_attention_output_dense_bias_to_fp16"), val = tensor<fp16, [384]>(BLOBFILE(path = tensor<string, []>("@model_path/weights/weight.bin"), offset = tensor<uint64, []>(32511552)))];
            tensor<fp16, [1, 512, 384]> linear_15_cast_fp16 = linear(bias = encoder_layer_2_attention_output_dense_bias_to_fp16, weight = encoder_layer_2_attention_output_dense_weight_to_fp16, x = input_59_cast_fp16)[name = tensor<string, []>("linear_15_cast_fp16")];
            tensor<fp16, [1, 512, 384]> input_63_cast_fp16 = add(x = linear_15_cast_fp16, y = input_53_cast_fp16)[name = tensor<string, []>("input_63_cast_fp16")];
            tensor<int32, [1]> input_65_axes_0 = const()[name = tensor<string, []>("input_65_axes_0"), val = tensor<int32, [1]>([-1])];
            tensor<fp16, [384]> encoder_layer_2_attention_output_LayerNorm_weight_to_fp16 = const()[name = tensor<string, []>("encoder_layer_2_attention_output_LayerNorm_weight_to_fp16"), val = tensor<fp16, [384]>(BLOBFILE(path = tensor<string, []>("@model_path/weights/weight.bin"), offset = tensor<uint64, []>(32512384)))];
            tensor<fp16, [384]> encoder_layer_2_attention_output_LayerNorm_bias_to_fp16 = const()[name = tensor<string, []>("encoder_layer_2_attention_output_LayerNorm_bias_to_fp16"), val = tensor<fp16, [384]>(BLOBFILE(path = tensor<string, []>("@model_path/weights/weight.bin"), offset = tensor<uint64, []>(32513216)))];
            tensor<fp16, []> var_301_to_fp16 = const()[name = tensor<string, []>("op_301_to_fp16"), val = tensor<fp16, []>(0x1p-24)];
            tensor<fp16, [1, 512, 384]> input_65_cast_fp16 = layer_norm(axes = input_65_axes_0, beta = encoder_layer_2_attention_output_LayerNorm_bias_to_fp16, epsilon = var_301_to_fp16, gamma = encoder_layer_2_attention_output_LayerNorm_weight_to_fp16, x = input_63_cast_fp16)[name = tensor<string, []>("input_65_cast_fp16")];
            tensor<fp16, [1536, 384]> encoder_layer_2_intermediate_dense_weight_to_fp16 = const()[name = tensor<string, []>("encoder_layer_2_intermediate_dense_weight_to_fp16"), val = tensor<fp16, [1536, 384]>(BLOBFILE(path = tensor<string, []>("@model_path/weights/weight.bin"), offset = tensor<uint64, []>(32514048)))];
            tensor<fp16, [1536]> encoder_layer_2_intermediate_dense_bias_to_fp16 = const()[name = tensor<string, []>("encoder_layer_2_intermediate_dense_bias_to_fp16"), val = tensor<fp16, [1536]>(BLOBFILE(path = tensor<string, []>("@model_path/weights/weight.bin"), offset = tensor<uint64, []>(33693760)))];
            tensor<fp16, [1, 512, 1536]> linear_16_cast_fp16 = linear(bias = encoder_layer_2_intermediate_dense_bias_to_fp16, weight = encoder_layer_2_intermediate_dense_weight_to_fp16, x = input_65_cast_fp16)[name = tensor<string, []>("linear_16_cast_fp16")];
            tensor<string, []> input_69_mode_0 = const()[name = tensor<string, []>("input_69_mode_0"), val = tensor<string, []>("EXACT")];
            tensor<fp16, [1, 512, 1536]> input_69_cast_fp16 = gelu(mode = input_69_mode_0, x = linear_16_cast_fp16)[name = tensor<string, []>("input_69_cast_fp16")];
            tensor<fp16, [384, 1536]> encoder_layer_2_output_dense_weight_to_fp16 = const()[name = tensor<string, []>("encoder_layer_2_output_dense_weight_to_fp16"), val = tensor<fp16, [384, 1536]>(BLOBFILE(path = tensor<string, []>("@model_path/weights/weight.bin"), offset = tensor<uint64, []>(33696896)))];
            tensor<fp16, [384]> encoder_layer_2_output_dense_bias_to_fp16 = const()[name = tensor<string, []>("encoder_layer_2_output_dense_bias_to_fp16"), val = tensor<fp16, [384]>(BLOBFILE(path = tensor<string, []>("@model_path/weights/weight.bin"), offset = tensor<uint64, []>(34876608)))];
            tensor<fp16, [1, 512, 384]> linear_17_cast_fp16 = linear(bias = encoder_layer_2_output_dense_bias_to_fp16, weight = encoder_layer_2_output_dense_weight_to_fp16, x = input_69_cast_fp16)[name = tensor<string, []>("linear_17_cast_fp16")];
            tensor<fp16, [1, 512, 384]> input_73_cast_fp16 = add(x = linear_17_cast_fp16, y = input_65_cast_fp16)[name = tensor<string, []>("input_73_cast_fp16")];
            tensor<int32, [1]> input_75_axes_0 = const()[name = tensor<string, []>("input_75_axes_0"), val = tensor<int32, [1]>([-1])];
            tensor<fp16, [384]> encoder_layer_2_output_LayerNorm_weight_to_fp16 = const()[name = tensor<string, []>("encoder_layer_2_output_LayerNorm_weight_to_fp16"), val = tensor<fp16, [384]>(BLOBFILE(path = tensor<string, []>("@model_path/weights/weight.bin"), offset = tensor<uint64, []>(34877440)))];
            tensor<fp16, [384]> encoder_layer_2_output_LayerNorm_bias_to_fp16 = const()[name = tensor<string, []>("encoder_layer_2_output_LayerNorm_bias_to_fp16"), val = tensor<fp16, [384]>(BLOBFILE(path = tensor<string, []>("@model_path/weights/weight.bin"), offset = tensor<uint64, []>(34878272)))];
            tensor<fp16, [1, 512, 384]> input_75_cast_fp16 = layer_norm(axes = input_75_axes_0, beta = encoder_layer_2_output_LayerNorm_bias_to_fp16, epsilon = var_301_to_fp16, gamma = encoder_layer_2_output_LayerNorm_weight_to_fp16, x = input_73_cast_fp16)[name = tensor<string, []>("input_75_cast_fp16")];
            tensor<int32, []> var_386 = const()[name = tensor<string, []>("op_386"), val = tensor<int32, []>(-1)];
            tensor<fp16, [384, 384]> encoder_layer_3_attention_self_query_weight_to_fp16 = const()[name = tensor<string, []>("encoder_layer_3_attention_self_query_weight_to_fp16"), val = tensor<fp16, [384, 384]>(BLOBFILE(path = tensor<string, []>("@model_path/weights/weight.bin"), offset = tensor<uint64, []>(34879104)))];
            tensor<fp16, [384]> encoder_layer_3_attention_self_query_bias_to_fp16 = const()[name = tensor<string, []>("encoder_layer_3_attention_self_query_bias_to_fp16"), val = tensor<fp16, [384]>(BLOBFILE(path = tensor<string, []>("@model_path/weights/weight.bin"), offset = tensor<uint64, []>(35174080)))];
            tensor<fp16, [1, 512, 384]> linear_18_cast_fp16 = linear(bias = encoder_layer_3_attention_self_query_bias_to_fp16, weight = encoder_layer_3_attention_self_query_weight_to_fp16, x = input_75_cast_fp16)[name = tensor<string, []>("linear_18_cast_fp16")];
            tensor<fp16, [384, 384]> encoder_layer_3_attention_self_key_weight_to_fp16 = const()[name = tensor<string, []>("encoder_layer_3_attention_self_key_weight_to_fp16"), val = tensor<fp16, [384, 384]>(BLOBFILE(path = tensor<string, []>("@model_path/weights/weight.bin"), offset = tensor<uint64, []>(35174912)))];
            tensor<fp16, [384]> encoder_layer_3_attention_self_key_bias_to_fp16 = const()[name = tensor<string, []>("encoder_layer_3_attention_self_key_bias_to_fp16"), val = tensor<fp16, [384]>(BLOBFILE(path = tensor<string, []>("@model_path/weights/weight.bin"), offset = tensor<uint64, []>(35469888)))];
            tensor<fp16, [1, 512, 384]> linear_19_cast_fp16 = linear(bias = encoder_layer_3_attention_self_key_bias_to_fp16, weight = encoder_layer_3_attention_self_key_weight_to_fp16, x = input_75_cast_fp16)[name = tensor<string, []>("linear_19_cast_fp16")];
            tensor<int32, [4]> var_411 = const()[name = tensor<string, []>("op_411"), val = tensor<int32, [4]>([1, 512, 12, 32])];
            tensor<fp16, [1, 512, 12, 32]> x_39_cast_fp16 = reshape(shape = var_411, x = linear_19_cast_fp16)[name = tensor<string, []>("x_39_cast_fp16")];
            tensor<fp16, [384, 384]> encoder_layer_3_attention_self_value_weight_to_fp16 = const()[name = tensor<string, []>("encoder_layer_3_attention_self_value_weight_to_fp16"), val = tensor<fp16, [384, 384]>(BLOBFILE(path = tensor<string, []>("@model_path/weights/weight.bin"), offset = tensor<uint64, []>(35470720)))];
            tensor<fp16, [384]> encoder_layer_3_attention_self_value_bias_to_fp16 = const()[name = tensor<string, []>("encoder_layer_3_attention_self_value_bias_to_fp16"), val = tensor<fp16, [384]>(BLOBFILE(path = tensor<string, []>("@model_path/weights/weight.bin"), offset = tensor<uint64, []>(35765696)))];
            tensor<fp16, [1, 512, 384]> linear_20_cast_fp16 = linear(bias = encoder_layer_3_attention_self_value_bias_to_fp16, weight = encoder_layer_3_attention_self_value_weight_to_fp16, x = input_75_cast_fp16)[name = tensor<string, []>("linear_20_cast_fp16")];
            tensor<int32, [4]> var_420 = const()[name = tensor<string, []>("op_420"), val = tensor<int32, [4]>([1, 512, 12, 32])];
            tensor<fp16, [1, 512, 12, 32]> x_43_cast_fp16 = reshape(shape = var_420, x = linear_20_cast_fp16)[name = tensor<string, []>("x_43_cast_fp16")];
            tensor<int32, [4]> var_422 = const()[name = tensor<string, []>("op_422"), val = tensor<int32, [4]>([0, 2, 1, 3])];
            tensor<int32, [4]> var_426 = const()[name = tensor<string, []>("op_426"), val = tensor<int32, [4]>([1, 512, 12, 32])];
            tensor<fp16, [1, 512, 12, 32]> x_47_cast_fp16 = reshape(shape = var_426, x = linear_18_cast_fp16)[name = tensor<string, []>("x_47_cast_fp16")];
            tensor<bool, []> attention_scores_13_transpose_x_0 = const()[name = tensor<string, []>("attention_scores_13_transpose_x_0"), val = tensor<bool, []>(false)];
            tensor<bool, []> attention_scores_13_transpose_y_0 = const()[name = tensor<string, []>("attention_scores_13_transpose_y_0"), val = tensor<bool, []>(false)];
            tensor<int32, [4]> transpose_42_perm_0 = const()[name = tensor<string, []>("transpose_42_perm_0"), val = tensor<int32, [4]>([0, 2, -3, -1])];
            tensor<int32, [4]> transpose_43_perm_0 = const()[name = tensor<string, []>("transpose_43_perm_0"), val = tensor<int32, [4]>([0, 2, -1, -3])];
            tensor<fp16, [1, 12, 32, 512]> transpose_43 = transpose(perm = transpose_43_perm_0, x = x_39_cast_fp16)[name = tensor<string, []>("transpose_93")];
            tensor<fp16, [1, 12, 512, 32]> transpose_42 = transpose(perm = transpose_42_perm_0, x = x_47_cast_fp16)[name = tensor<string, []>("transpose_94")];
            tensor<fp16, [1, 12, 512, 512]> attention_scores_13_cast_fp16 = matmul(transpose_x = attention_scores_13_transpose_x_0, transpose_y = attention_scores_13_transpose_y_0, x = transpose_42, y = transpose_43)[name = tensor<string, []>("attention_scores_13_cast_fp16")];
            tensor<fp16, []> _inversed_attention_scores_15_y_0_to_fp16 = const()[name = tensor<string, []>("_inversed_attention_scores_15_y_0_to_fp16"), val = tensor<fp16, []>(0x1.6ap-3)];
            tensor<fp16, [1, 12, 512, 512]> _inversed_attention_scores_15_cast_fp16 = mul(x = attention_scores_13_cast_fp16, y = _inversed_attention_scores_15_y_0_to_fp16)[name = tensor<string, []>("_inversed_attention_scores_15_cast_fp16")];
            tensor<fp16, [1, 12, 512, 512]> input_77_cast_fp16 = add(x = _inversed_attention_scores_15_cast_fp16, y = attention_mask_cast_fp16)[name = tensor<string, []>("input_77_cast_fp16")];
            tensor<fp16, [1, 12, 512, 512]> input_79_cast_fp16 = softmax(axis = var_386, x = input_77_cast_fp16)[name = tensor<string, []>("input_79_cast_fp16")];
            tensor<bool, []> context_layer_13_transpose_x_0 = const()[name = tensor<string, []>("context_layer_13_transpose_x_0"), val = tensor<bool, []>(false)];
            tensor<bool, []> context_layer_13_transpose_y_0 = const()[name = tensor<string, []>("context_layer_13_transpose_y_0"), val = tensor<bool, []>(false)];
            tensor<fp16, [1, 12, 512, 32]> value_layer_7_cast_fp16 = transpose(perm = var_422, x = x_43_cast_fp16)[name = tensor<string, []>("transpose_95")];
            tensor<fp16, [1, 12, 512, 32]> context_layer_13_cast_fp16 = matmul(transpose_x = context_layer_13_transpose_x_0, transpose_y = context_layer_13_transpose_y_0, x = input_79_cast_fp16, y = value_layer_7_cast_fp16)[name = tensor<string, []>("context_layer_13_cast_fp16")];
            tensor<int32, [4]> var_438 = const()[name = tensor<string, []>("op_438"), val = tensor<int32, [4]>([0, 2, 1, 3])];
            tensor<int32, [3]> var_443 = const()[name = tensor<string, []>("op_443"), val = tensor<int32, [3]>([1, 512, 384])];
            tensor<fp16, [1, 512, 12, 32]> var_439_cast_fp16 = transpose(perm = var_438, x = context_layer_13_cast_fp16)[name = tensor<string, []>("transpose_92")];
            tensor<fp16, [1, 512, 384]> input_81_cast_fp16 = reshape(shape = var_443, x = var_439_cast_fp16)[name = tensor<string, []>("input_81_cast_fp16")];
            tensor<fp16, [384, 384]> encoder_layer_3_attention_output_dense_weight_to_fp16 = const()[name = tensor<string, []>("encoder_layer_3_attention_output_dense_weight_to_fp16"), val = tensor<fp16, [384, 384]>(BLOBFILE(path = tensor<string, []>("@model_path/weights/weight.bin"), offset = tensor<uint64, []>(35766528)))];
            tensor<fp16, [384]> encoder_layer_3_attention_output_dense_bias_to_fp16 = const()[name = tensor<string, []>("encoder_layer_3_attention_output_dense_bias_to_fp16"), val = tensor<fp16, [384]>(BLOBFILE(path = tensor<string, []>("@model_path/weights/weight.bin"), offset = tensor<uint64, []>(36061504)))];
            tensor<fp16, [1, 512, 384]> linear_21_cast_fp16 = linear(bias = encoder_layer_3_attention_output_dense_bias_to_fp16, weight = encoder_layer_3_attention_output_dense_weight_to_fp16, x = input_81_cast_fp16)[name = tensor<string, []>("linear_21_cast_fp16")];
            tensor<fp16, [1, 512, 384]> input_85_cast_fp16 = add(x = linear_21_cast_fp16, y = input_75_cast_fp16)[name = tensor<string, []>("input_85_cast_fp16")];
            tensor<int32, [1]> input_87_axes_0 = const()[name = tensor<string, []>("input_87_axes_0"), val = tensor<int32, [1]>([-1])];
            tensor<fp16, [384]> encoder_layer_3_attention_output_LayerNorm_weight_to_fp16 = const()[name = tensor<string, []>("encoder_layer_3_attention_output_LayerNorm_weight_to_fp16"), val = tensor<fp16, [384]>(BLOBFILE(path = tensor<string, []>("@model_path/weights/weight.bin"), offset = tensor<uint64, []>(36062336)))];
            tensor<fp16, [384]> encoder_layer_3_attention_output_LayerNorm_bias_to_fp16 = const()[name = tensor<string, []>("encoder_layer_3_attention_output_LayerNorm_bias_to_fp16"), val = tensor<fp16, [384]>(BLOBFILE(path = tensor<string, []>("@model_path/weights/weight.bin"), offset = tensor<uint64, []>(36063168)))];
            tensor<fp16, []> var_393_to_fp16 = const()[name = tensor<string, []>("op_393_to_fp16"), val = tensor<fp16, []>(0x1p-24)];
            tensor<fp16, [1, 512, 384]> input_87_cast_fp16 = layer_norm(axes = input_87_axes_0, beta = encoder_layer_3_attention_output_LayerNorm_bias_to_fp16, epsilon = var_393_to_fp16, gamma = encoder_layer_3_attention_output_LayerNorm_weight_to_fp16, x = input_85_cast_fp16)[name = tensor<string, []>("input_87_cast_fp16")];
            tensor<fp16, [1536, 384]> encoder_layer_3_intermediate_dense_weight_to_fp16 = const()[name = tensor<string, []>("encoder_layer_3_intermediate_dense_weight_to_fp16"), val = tensor<fp16, [1536, 384]>(BLOBFILE(path = tensor<string, []>("@model_path/weights/weight.bin"), offset = tensor<uint64, []>(36064000)))];
            tensor<fp16, [1536]> encoder_layer_3_intermediate_dense_bias_to_fp16 = const()[name = tensor<string, []>("encoder_layer_3_intermediate_dense_bias_to_fp16"), val = tensor<fp16, [1536]>(BLOBFILE(path = tensor<string, []>("@model_path/weights/weight.bin"), offset = tensor<uint64, []>(37243712)))];
            tensor<fp16, [1, 512, 1536]> linear_22_cast_fp16 = linear(bias = encoder_layer_3_intermediate_dense_bias_to_fp16, weight = encoder_layer_3_intermediate_dense_weight_to_fp16, x = input_87_cast_fp16)[name = tensor<string, []>("linear_22_cast_fp16")];
            tensor<string, []> input_91_mode_0 = const()[name = tensor<string, []>("input_91_mode_0"), val = tensor<string, []>("EXACT")];
            tensor<fp16, [1, 512, 1536]> input_91_cast_fp16 = gelu(mode = input_91_mode_0, x = linear_22_cast_fp16)[name = tensor<string, []>("input_91_cast_fp16")];
            tensor<fp16, [384, 1536]> encoder_layer_3_output_dense_weight_to_fp16 = const()[name = tensor<string, []>("encoder_layer_3_output_dense_weight_to_fp16"), val = tensor<fp16, [384, 1536]>(BLOBFILE(path = tensor<string, []>("@model_path/weights/weight.bin"), offset = tensor<uint64, []>(37246848)))];
            tensor<fp16, [384]> encoder_layer_3_output_dense_bias_to_fp16 = const()[name = tensor<string, []>("encoder_layer_3_output_dense_bias_to_fp16"), val = tensor<fp16, [384]>(BLOBFILE(path = tensor<string, []>("@model_path/weights/weight.bin"), offset = tensor<uint64, []>(38426560)))];
            tensor<fp16, [1, 512, 384]> linear_23_cast_fp16 = linear(bias = encoder_layer_3_output_dense_bias_to_fp16, weight = encoder_layer_3_output_dense_weight_to_fp16, x = input_91_cast_fp16)[name = tensor<string, []>("linear_23_cast_fp16")];
            tensor<fp16, [1, 512, 384]> input_95_cast_fp16 = add(x = linear_23_cast_fp16, y = input_87_cast_fp16)[name = tensor<string, []>("input_95_cast_fp16")];
            tensor<int32, [1]> input_97_axes_0 = const()[name = tensor<string, []>("input_97_axes_0"), val = tensor<int32, [1]>([-1])];
            tensor<fp16, [384]> encoder_layer_3_output_LayerNorm_weight_to_fp16 = const()[name = tensor<string, []>("encoder_layer_3_output_LayerNorm_weight_to_fp16"), val = tensor<fp16, [384]>(BLOBFILE(path = tensor<string, []>("@model_path/weights/weight.bin"), offset = tensor<uint64, []>(38427392)))];
            tensor<fp16, [384]> encoder_layer_3_output_LayerNorm_bias_to_fp16 = const()[name = tensor<string, []>("encoder_layer_3_output_LayerNorm_bias_to_fp16"), val = tensor<fp16, [384]>(BLOBFILE(path = tensor<string, []>("@model_path/weights/weight.bin"), offset = tensor<uint64, []>(38428224)))];
            tensor<fp16, [1, 512, 384]> input_97_cast_fp16 = layer_norm(axes = input_97_axes_0, beta = encoder_layer_3_output_LayerNorm_bias_to_fp16, epsilon = var_393_to_fp16, gamma = encoder_layer_3_output_LayerNorm_weight_to_fp16, x = input_95_cast_fp16)[name = tensor<string, []>("input_97_cast_fp16")];
            tensor<int32, []> var_478 = const()[name = tensor<string, []>("op_478"), val = tensor<int32, []>(-1)];
            tensor<fp16, [384, 384]> encoder_layer_4_attention_self_query_weight_to_fp16 = const()[name = tensor<string, []>("encoder_layer_4_attention_self_query_weight_to_fp16"), val = tensor<fp16, [384, 384]>(BLOBFILE(path = tensor<string, []>("@model_path/weights/weight.bin"), offset = tensor<uint64, []>(38429056)))];
            tensor<fp16, [384]> encoder_layer_4_attention_self_query_bias_to_fp16 = const()[name = tensor<string, []>("encoder_layer_4_attention_self_query_bias_to_fp16"), val = tensor<fp16, [384]>(BLOBFILE(path = tensor<string, []>("@model_path/weights/weight.bin"), offset = tensor<uint64, []>(38724032)))];
            tensor<fp16, [1, 512, 384]> linear_24_cast_fp16 = linear(bias = encoder_layer_4_attention_self_query_bias_to_fp16, weight = encoder_layer_4_attention_self_query_weight_to_fp16, x = input_97_cast_fp16)[name = tensor<string, []>("linear_24_cast_fp16")];
            tensor<fp16, [384, 384]> encoder_layer_4_attention_self_key_weight_to_fp16 = const()[name = tensor<string, []>("encoder_layer_4_attention_self_key_weight_to_fp16"), val = tensor<fp16, [384, 384]>(BLOBFILE(path = tensor<string, []>("@model_path/weights/weight.bin"), offset = tensor<uint64, []>(38724864)))];
            tensor<fp16, [384]> encoder_layer_4_attention_self_key_bias_to_fp16 = const()[name = tensor<string, []>("encoder_layer_4_attention_self_key_bias_to_fp16"), val = tensor<fp16, [384]>(BLOBFILE(path = tensor<string, []>("@model_path/weights/weight.bin"), offset = tensor<uint64, []>(39019840)))];
            tensor<fp16, [1, 512, 384]> linear_25_cast_fp16 = linear(bias = encoder_layer_4_attention_self_key_bias_to_fp16, weight = encoder_layer_4_attention_self_key_weight_to_fp16, x = input_97_cast_fp16)[name = tensor<string, []>("linear_25_cast_fp16")];
            tensor<int32, [4]> var_503 = const()[name = tensor<string, []>("op_503"), val = tensor<int32, [4]>([1, 512, 12, 32])];
            tensor<fp16, [1, 512, 12, 32]> x_51_cast_fp16 = reshape(shape = var_503, x = linear_25_cast_fp16)[name = tensor<string, []>("x_51_cast_fp16")];
            tensor<fp16, [384, 384]> encoder_layer_4_attention_self_value_weight_to_fp16 = const()[name = tensor<string, []>("encoder_layer_4_attention_self_value_weight_to_fp16"), val = tensor<fp16, [384, 384]>(BLOBFILE(path = tensor<string, []>("@model_path/weights/weight.bin"), offset = tensor<uint64, []>(39020672)))];
            tensor<fp16, [384]> encoder_layer_4_attention_self_value_bias_to_fp16 = const()[name = tensor<string, []>("encoder_layer_4_attention_self_value_bias_to_fp16"), val = tensor<fp16, [384]>(BLOBFILE(path = tensor<string, []>("@model_path/weights/weight.bin"), offset = tensor<uint64, []>(39315648)))];
            tensor<fp16, [1, 512, 384]> linear_26_cast_fp16 = linear(bias = encoder_layer_4_attention_self_value_bias_to_fp16, weight = encoder_layer_4_attention_self_value_weight_to_fp16, x = input_97_cast_fp16)[name = tensor<string, []>("linear_26_cast_fp16")];
            tensor<int32, [4]> var_512 = const()[name = tensor<string, []>("op_512"), val = tensor<int32, [4]>([1, 512, 12, 32])];
            tensor<fp16, [1, 512, 12, 32]> x_55_cast_fp16 = reshape(shape = var_512, x = linear_26_cast_fp16)[name = tensor<string, []>("x_55_cast_fp16")];
            tensor<int32, [4]> var_514 = const()[name = tensor<string, []>("op_514"), val = tensor<int32, [4]>([0, 2, 1, 3])];
            tensor<int32, [4]> var_518 = const()[name = tensor<string, []>("op_518"), val = tensor<int32, [4]>([1, 512, 12, 32])];
            tensor<fp16, [1, 512, 12, 32]> x_59_cast_fp16 = reshape(shape = var_518, x = linear_24_cast_fp16)[name = tensor<string, []>("x_59_cast_fp16")];
            tensor<bool, []> attention_scores_17_transpose_x_0 = const()[name = tensor<string, []>("attention_scores_17_transpose_x_0"), val = tensor<bool, []>(false)];
            tensor<bool, []> attention_scores_17_transpose_y_0 = const()[name = tensor<string, []>("attention_scores_17_transpose_y_0"), val = tensor<bool, []>(false)];
            tensor<int32, [4]> transpose_44_perm_0 = const()[name = tensor<string, []>("transpose_44_perm_0"), val = tensor<int32, [4]>([0, 2, -3, -1])];
            tensor<int32, [4]> transpose_45_perm_0 = const()[name = tensor<string, []>("transpose_45_perm_0"), val = tensor<int32, [4]>([0, 2, -1, -3])];
            tensor<fp16, [1, 12, 32, 512]> transpose_45 = transpose(perm = transpose_45_perm_0, x = x_51_cast_fp16)[name = tensor<string, []>("transpose_89")];
            tensor<fp16, [1, 12, 512, 32]> transpose_44 = transpose(perm = transpose_44_perm_0, x = x_59_cast_fp16)[name = tensor<string, []>("transpose_90")];
            tensor<fp16, [1, 12, 512, 512]> attention_scores_17_cast_fp16 = matmul(transpose_x = attention_scores_17_transpose_x_0, transpose_y = attention_scores_17_transpose_y_0, x = transpose_44, y = transpose_45)[name = tensor<string, []>("attention_scores_17_cast_fp16")];
            tensor<fp16, []> _inversed_attention_scores_19_y_0_to_fp16 = const()[name = tensor<string, []>("_inversed_attention_scores_19_y_0_to_fp16"), val = tensor<fp16, []>(0x1.6ap-3)];
            tensor<fp16, [1, 12, 512, 512]> _inversed_attention_scores_19_cast_fp16 = mul(x = attention_scores_17_cast_fp16, y = _inversed_attention_scores_19_y_0_to_fp16)[name = tensor<string, []>("_inversed_attention_scores_19_cast_fp16")];
            tensor<fp16, [1, 12, 512, 512]> input_99_cast_fp16 = add(x = _inversed_attention_scores_19_cast_fp16, y = attention_mask_cast_fp16)[name = tensor<string, []>("input_99_cast_fp16")];
            tensor<fp16, [1, 12, 512, 512]> input_101_cast_fp16 = softmax(axis = var_478, x = input_99_cast_fp16)[name = tensor<string, []>("input_101_cast_fp16")];
            tensor<bool, []> context_layer_17_transpose_x_0 = const()[name = tensor<string, []>("context_layer_17_transpose_x_0"), val = tensor<bool, []>(false)];
            tensor<bool, []> context_layer_17_transpose_y_0 = const()[name = tensor<string, []>("context_layer_17_transpose_y_0"), val = tensor<bool, []>(false)];
            tensor<fp16, [1, 12, 512, 32]> value_layer_9_cast_fp16 = transpose(perm = var_514, x = x_55_cast_fp16)[name = tensor<string, []>("transpose_91")];
            tensor<fp16, [1, 12, 512, 32]> context_layer_17_cast_fp16 = matmul(transpose_x = context_layer_17_transpose_x_0, transpose_y = context_layer_17_transpose_y_0, x = input_101_cast_fp16, y = value_layer_9_cast_fp16)[name = tensor<string, []>("context_layer_17_cast_fp16")];
            tensor<int32, [4]> var_530 = const()[name = tensor<string, []>("op_530"), val = tensor<int32, [4]>([0, 2, 1, 3])];
            tensor<int32, [3]> var_535 = const()[name = tensor<string, []>("op_535"), val = tensor<int32, [3]>([1, 512, 384])];
            tensor<fp16, [1, 512, 12, 32]> var_531_cast_fp16 = transpose(perm = var_530, x = context_layer_17_cast_fp16)[name = tensor<string, []>("transpose_88")];
            tensor<fp16, [1, 512, 384]> input_103_cast_fp16 = reshape(shape = var_535, x = var_531_cast_fp16)[name = tensor<string, []>("input_103_cast_fp16")];
            tensor<fp16, [384, 384]> encoder_layer_4_attention_output_dense_weight_to_fp16 = const()[name = tensor<string, []>("encoder_layer_4_attention_output_dense_weight_to_fp16"), val = tensor<fp16, [384, 384]>(BLOBFILE(path = tensor<string, []>("@model_path/weights/weight.bin"), offset = tensor<uint64, []>(39316480)))];
            tensor<fp16, [384]> encoder_layer_4_attention_output_dense_bias_to_fp16 = const()[name = tensor<string, []>("encoder_layer_4_attention_output_dense_bias_to_fp16"), val = tensor<fp16, [384]>(BLOBFILE(path = tensor<string, []>("@model_path/weights/weight.bin"), offset = tensor<uint64, []>(39611456)))];
            tensor<fp16, [1, 512, 384]> linear_27_cast_fp16 = linear(bias = encoder_layer_4_attention_output_dense_bias_to_fp16, weight = encoder_layer_4_attention_output_dense_weight_to_fp16, x = input_103_cast_fp16)[name = tensor<string, []>("linear_27_cast_fp16")];
            tensor<fp16, [1, 512, 384]> input_107_cast_fp16 = add(x = linear_27_cast_fp16, y = input_97_cast_fp16)[name = tensor<string, []>("input_107_cast_fp16")];
            tensor<int32, [1]> input_109_axes_0 = const()[name = tensor<string, []>("input_109_axes_0"), val = tensor<int32, [1]>([-1])];
            tensor<fp16, [384]> encoder_layer_4_attention_output_LayerNorm_weight_to_fp16 = const()[name = tensor<string, []>("encoder_layer_4_attention_output_LayerNorm_weight_to_fp16"), val = tensor<fp16, [384]>(BLOBFILE(path = tensor<string, []>("@model_path/weights/weight.bin"), offset = tensor<uint64, []>(39612288)))];
            tensor<fp16, [384]> encoder_layer_4_attention_output_LayerNorm_bias_to_fp16 = const()[name = tensor<string, []>("encoder_layer_4_attention_output_LayerNorm_bias_to_fp16"), val = tensor<fp16, [384]>(BLOBFILE(path = tensor<string, []>("@model_path/weights/weight.bin"), offset = tensor<uint64, []>(39613120)))];
            tensor<fp16, []> var_485_to_fp16 = const()[name = tensor<string, []>("op_485_to_fp16"), val = tensor<fp16, []>(0x1p-24)];
            tensor<fp16, [1, 512, 384]> input_109_cast_fp16 = layer_norm(axes = input_109_axes_0, beta = encoder_layer_4_attention_output_LayerNorm_bias_to_fp16, epsilon = var_485_to_fp16, gamma = encoder_layer_4_attention_output_LayerNorm_weight_to_fp16, x = input_107_cast_fp16)[name = tensor<string, []>("input_109_cast_fp16")];
            tensor<fp16, [1536, 384]> encoder_layer_4_intermediate_dense_weight_to_fp16 = const()[name = tensor<string, []>("encoder_layer_4_intermediate_dense_weight_to_fp16"), val = tensor<fp16, [1536, 384]>(BLOBFILE(path = tensor<string, []>("@model_path/weights/weight.bin"), offset = tensor<uint64, []>(39613952)))];
            tensor<fp16, [1536]> encoder_layer_4_intermediate_dense_bias_to_fp16 = const()[name = tensor<string, []>("encoder_layer_4_intermediate_dense_bias_to_fp16"), val = tensor<fp16, [1536]>(BLOBFILE(path = tensor<string, []>("@model_path/weights/weight.bin"), offset = tensor<uint64, []>(40793664)))];
            tensor<fp16, [1, 512, 1536]> linear_28_cast_fp16 = linear(bias = encoder_layer_4_intermediate_dense_bias_to_fp16, weight = encoder_layer_4_intermediate_dense_weight_to_fp16, x = input_109_cast_fp16)[name = tensor<string, []>("linear_28_cast_fp16")];
            tensor<string, []> input_113_mode_0 = const()[name = tensor<string, []>("input_113_mode_0"), val = tensor<string, []>("EXACT")];
            tensor<fp16, [1, 512, 1536]> input_113_cast_fp16 = gelu(mode = input_113_mode_0, x = linear_28_cast_fp16)[name = tensor<string, []>("input_113_cast_fp16")];
            tensor<fp16, [384, 1536]> encoder_layer_4_output_dense_weight_to_fp16 = const()[name = tensor<string, []>("encoder_layer_4_output_dense_weight_to_fp16"), val = tensor<fp16, [384, 1536]>(BLOBFILE(path = tensor<string, []>("@model_path/weights/weight.bin"), offset = tensor<uint64, []>(40796800)))];
            tensor<fp16, [384]> encoder_layer_4_output_dense_bias_to_fp16 = const()[name = tensor<string, []>("encoder_layer_4_output_dense_bias_to_fp16"), val = tensor<fp16, [384]>(BLOBFILE(path = tensor<string, []>("@model_path/weights/weight.bin"), offset = tensor<uint64, []>(41976512)))];
            tensor<fp16, [1, 512, 384]> linear_29_cast_fp16 = linear(bias = encoder_layer_4_output_dense_bias_to_fp16, weight = encoder_layer_4_output_dense_weight_to_fp16, x = input_113_cast_fp16)[name = tensor<string, []>("linear_29_cast_fp16")];
            tensor<fp16, [1, 512, 384]> input_117_cast_fp16 = add(x = linear_29_cast_fp16, y = input_109_cast_fp16)[name = tensor<string, []>("input_117_cast_fp16")];
            tensor<int32, [1]> input_119_axes_0 = const()[name = tensor<string, []>("input_119_axes_0"), val = tensor<int32, [1]>([-1])];
            tensor<fp16, [384]> encoder_layer_4_output_LayerNorm_weight_to_fp16 = const()[name = tensor<string, []>("encoder_layer_4_output_LayerNorm_weight_to_fp16"), val = tensor<fp16, [384]>(BLOBFILE(path = tensor<string, []>("@model_path/weights/weight.bin"), offset = tensor<uint64, []>(41977344)))];
            tensor<fp16, [384]> encoder_layer_4_output_LayerNorm_bias_to_fp16 = const()[name = tensor<string, []>("encoder_layer_4_output_LayerNorm_bias_to_fp16"), val = tensor<fp16, [384]>(BLOBFILE(path = tensor<string, []>("@model_path/weights/weight.bin"), offset = tensor<uint64, []>(41978176)))];
            tensor<fp16, [1, 512, 384]> input_119_cast_fp16 = layer_norm(axes = input_119_axes_0, beta = encoder_layer_4_output_LayerNorm_bias_to_fp16, epsilon = var_485_to_fp16, gamma = encoder_layer_4_output_LayerNorm_weight_to_fp16, x = input_117_cast_fp16)[name = tensor<string, []>("input_119_cast_fp16")];
            tensor<int32, []> var_570 = const()[name = tensor<string, []>("op_570"), val = tensor<int32, []>(-1)];
            tensor<fp16, [384, 384]> encoder_layer_5_attention_self_query_weight_to_fp16 = const()[name = tensor<string, []>("encoder_layer_5_attention_self_query_weight_to_fp16"), val = tensor<fp16, [384, 384]>(BLOBFILE(path = tensor<string, []>("@model_path/weights/weight.bin"), offset = tensor<uint64, []>(41979008)))];
            tensor<fp16, [384]> encoder_layer_5_attention_self_query_bias_to_fp16 = const()[name = tensor<string, []>("encoder_layer_5_attention_self_query_bias_to_fp16"), val = tensor<fp16, [384]>(BLOBFILE(path = tensor<string, []>("@model_path/weights/weight.bin"), offset = tensor<uint64, []>(42273984)))];
            tensor<fp16, [1, 512, 384]> linear_30_cast_fp16 = linear(bias = encoder_layer_5_attention_self_query_bias_to_fp16, weight = encoder_layer_5_attention_self_query_weight_to_fp16, x = input_119_cast_fp16)[name = tensor<string, []>("linear_30_cast_fp16")];
            tensor<fp16, [384, 384]> encoder_layer_5_attention_self_key_weight_to_fp16 = const()[name = tensor<string, []>("encoder_layer_5_attention_self_key_weight_to_fp16"), val = tensor<fp16, [384, 384]>(BLOBFILE(path = tensor<string, []>("@model_path/weights/weight.bin"), offset = tensor<uint64, []>(42274816)))];
            tensor<fp16, [384]> encoder_layer_5_attention_self_key_bias_to_fp16 = const()[name = tensor<string, []>("encoder_layer_5_attention_self_key_bias_to_fp16"), val = tensor<fp16, [384]>(BLOBFILE(path = tensor<string, []>("@model_path/weights/weight.bin"), offset = tensor<uint64, []>(42569792)))];
            tensor<fp16, [1, 512, 384]> linear_31_cast_fp16 = linear(bias = encoder_layer_5_attention_self_key_bias_to_fp16, weight = encoder_layer_5_attention_self_key_weight_to_fp16, x = input_119_cast_fp16)[name = tensor<string, []>("linear_31_cast_fp16")];
            tensor<int32, [4]> var_595 = const()[name = tensor<string, []>("op_595"), val = tensor<int32, [4]>([1, 512, 12, 32])];
            tensor<fp16, [1, 512, 12, 32]> x_63_cast_fp16 = reshape(shape = var_595, x = linear_31_cast_fp16)[name = tensor<string, []>("x_63_cast_fp16")];
            tensor<fp16, [384, 384]> encoder_layer_5_attention_self_value_weight_to_fp16 = const()[name = tensor<string, []>("encoder_layer_5_attention_self_value_weight_to_fp16"), val = tensor<fp16, [384, 384]>(BLOBFILE(path = tensor<string, []>("@model_path/weights/weight.bin"), offset = tensor<uint64, []>(42570624)))];
            tensor<fp16, [384]> encoder_layer_5_attention_self_value_bias_to_fp16 = const()[name = tensor<string, []>("encoder_layer_5_attention_self_value_bias_to_fp16"), val = tensor<fp16, [384]>(BLOBFILE(path = tensor<string, []>("@model_path/weights/weight.bin"), offset = tensor<uint64, []>(42865600)))];
            tensor<fp16, [1, 512, 384]> linear_32_cast_fp16 = linear(bias = encoder_layer_5_attention_self_value_bias_to_fp16, weight = encoder_layer_5_attention_self_value_weight_to_fp16, x = input_119_cast_fp16)[name = tensor<string, []>("linear_32_cast_fp16")];
            tensor<int32, [4]> var_604 = const()[name = tensor<string, []>("op_604"), val = tensor<int32, [4]>([1, 512, 12, 32])];
            tensor<fp16, [1, 512, 12, 32]> x_67_cast_fp16 = reshape(shape = var_604, x = linear_32_cast_fp16)[name = tensor<string, []>("x_67_cast_fp16")];
            tensor<int32, [4]> var_606 = const()[name = tensor<string, []>("op_606"), val = tensor<int32, [4]>([0, 2, 1, 3])];
            tensor<int32, [4]> var_610 = const()[name = tensor<string, []>("op_610"), val = tensor<int32, [4]>([1, 512, 12, 32])];
            tensor<fp16, [1, 512, 12, 32]> x_71_cast_fp16 = reshape(shape = var_610, x = linear_30_cast_fp16)[name = tensor<string, []>("x_71_cast_fp16")];
            tensor<bool, []> attention_scores_21_transpose_x_0 = const()[name = tensor<string, []>("attention_scores_21_transpose_x_0"), val = tensor<bool, []>(false)];
            tensor<bool, []> attention_scores_21_transpose_y_0 = const()[name = tensor<string, []>("attention_scores_21_transpose_y_0"), val = tensor<bool, []>(false)];
            tensor<int32, [4]> transpose_46_perm_0 = const()[name = tensor<string, []>("transpose_46_perm_0"), val = tensor<int32, [4]>([0, 2, -3, -1])];
            tensor<int32, [4]> transpose_47_perm_0 = const()[name = tensor<string, []>("transpose_47_perm_0"), val = tensor<int32, [4]>([0, 2, -1, -3])];
            tensor<fp16, [1, 12, 32, 512]> transpose_47 = transpose(perm = transpose_47_perm_0, x = x_63_cast_fp16)[name = tensor<string, []>("transpose_85")];
            tensor<fp16, [1, 12, 512, 32]> transpose_46 = transpose(perm = transpose_46_perm_0, x = x_71_cast_fp16)[name = tensor<string, []>("transpose_86")];
            tensor<fp16, [1, 12, 512, 512]> attention_scores_21_cast_fp16 = matmul(transpose_x = attention_scores_21_transpose_x_0, transpose_y = attention_scores_21_transpose_y_0, x = transpose_46, y = transpose_47)[name = tensor<string, []>("attention_scores_21_cast_fp16")];
            tensor<fp16, []> _inversed_attention_scores_23_y_0_to_fp16 = const()[name = tensor<string, []>("_inversed_attention_scores_23_y_0_to_fp16"), val = tensor<fp16, []>(0x1.6ap-3)];
            tensor<fp16, [1, 12, 512, 512]> _inversed_attention_scores_23_cast_fp16 = mul(x = attention_scores_21_cast_fp16, y = _inversed_attention_scores_23_y_0_to_fp16)[name = tensor<string, []>("_inversed_attention_scores_23_cast_fp16")];
            tensor<fp16, [1, 12, 512, 512]> input_121_cast_fp16 = add(x = _inversed_attention_scores_23_cast_fp16, y = attention_mask_cast_fp16)[name = tensor<string, []>("input_121_cast_fp16")];
            tensor<fp16, [1, 12, 512, 512]> input_123_cast_fp16 = softmax(axis = var_570, x = input_121_cast_fp16)[name = tensor<string, []>("input_123_cast_fp16")];
            tensor<bool, []> context_layer_21_transpose_x_0 = const()[name = tensor<string, []>("context_layer_21_transpose_x_0"), val = tensor<bool, []>(false)];
            tensor<bool, []> context_layer_21_transpose_y_0 = const()[name = tensor<string, []>("context_layer_21_transpose_y_0"), val = tensor<bool, []>(false)];
            tensor<fp16, [1, 12, 512, 32]> value_layer_11_cast_fp16 = transpose(perm = var_606, x = x_67_cast_fp16)[name = tensor<string, []>("transpose_87")];
            tensor<fp16, [1, 12, 512, 32]> context_layer_21_cast_fp16 = matmul(transpose_x = context_layer_21_transpose_x_0, transpose_y = context_layer_21_transpose_y_0, x = input_123_cast_fp16, y = value_layer_11_cast_fp16)[name = tensor<string, []>("context_layer_21_cast_fp16")];
            tensor<int32, [4]> var_622 = const()[name = tensor<string, []>("op_622"), val = tensor<int32, [4]>([0, 2, 1, 3])];
            tensor<int32, [3]> var_627 = const()[name = tensor<string, []>("op_627"), val = tensor<int32, [3]>([1, 512, 384])];
            tensor<fp16, [1, 512, 12, 32]> var_623_cast_fp16 = transpose(perm = var_622, x = context_layer_21_cast_fp16)[name = tensor<string, []>("transpose_84")];
            tensor<fp16, [1, 512, 384]> input_125_cast_fp16 = reshape(shape = var_627, x = var_623_cast_fp16)[name = tensor<string, []>("input_125_cast_fp16")];
            tensor<fp16, [384, 384]> encoder_layer_5_attention_output_dense_weight_to_fp16 = const()[name = tensor<string, []>("encoder_layer_5_attention_output_dense_weight_to_fp16"), val = tensor<fp16, [384, 384]>(BLOBFILE(path = tensor<string, []>("@model_path/weights/weight.bin"), offset = tensor<uint64, []>(42866432)))];
            tensor<fp16, [384]> encoder_layer_5_attention_output_dense_bias_to_fp16 = const()[name = tensor<string, []>("encoder_layer_5_attention_output_dense_bias_to_fp16"), val = tensor<fp16, [384]>(BLOBFILE(path = tensor<string, []>("@model_path/weights/weight.bin"), offset = tensor<uint64, []>(43161408)))];
            tensor<fp16, [1, 512, 384]> linear_33_cast_fp16 = linear(bias = encoder_layer_5_attention_output_dense_bias_to_fp16, weight = encoder_layer_5_attention_output_dense_weight_to_fp16, x = input_125_cast_fp16)[name = tensor<string, []>("linear_33_cast_fp16")];
            tensor<fp16, [1, 512, 384]> input_129_cast_fp16 = add(x = linear_33_cast_fp16, y = input_119_cast_fp16)[name = tensor<string, []>("input_129_cast_fp16")];
            tensor<int32, [1]> input_131_axes_0 = const()[name = tensor<string, []>("input_131_axes_0"), val = tensor<int32, [1]>([-1])];
            tensor<fp16, [384]> encoder_layer_5_attention_output_LayerNorm_weight_to_fp16 = const()[name = tensor<string, []>("encoder_layer_5_attention_output_LayerNorm_weight_to_fp16"), val = tensor<fp16, [384]>(BLOBFILE(path = tensor<string, []>("@model_path/weights/weight.bin"), offset = tensor<uint64, []>(43162240)))];
            tensor<fp16, [384]> encoder_layer_5_attention_output_LayerNorm_bias_to_fp16 = const()[name = tensor<string, []>("encoder_layer_5_attention_output_LayerNorm_bias_to_fp16"), val = tensor<fp16, [384]>(BLOBFILE(path = tensor<string, []>("@model_path/weights/weight.bin"), offset = tensor<uint64, []>(43163072)))];
            tensor<fp16, []> var_577_to_fp16 = const()[name = tensor<string, []>("op_577_to_fp16"), val = tensor<fp16, []>(0x1p-24)];
            tensor<fp16, [1, 512, 384]> input_131_cast_fp16 = layer_norm(axes = input_131_axes_0, beta = encoder_layer_5_attention_output_LayerNorm_bias_to_fp16, epsilon = var_577_to_fp16, gamma = encoder_layer_5_attention_output_LayerNorm_weight_to_fp16, x = input_129_cast_fp16)[name = tensor<string, []>("input_131_cast_fp16")];
            tensor<fp16, [1536, 384]> encoder_layer_5_intermediate_dense_weight_to_fp16 = const()[name = tensor<string, []>("encoder_layer_5_intermediate_dense_weight_to_fp16"), val = tensor<fp16, [1536, 384]>(BLOBFILE(path = tensor<string, []>("@model_path/weights/weight.bin"), offset = tensor<uint64, []>(43163904)))];
            tensor<fp16, [1536]> encoder_layer_5_intermediate_dense_bias_to_fp16 = const()[name = tensor<string, []>("encoder_layer_5_intermediate_dense_bias_to_fp16"), val = tensor<fp16, [1536]>(BLOBFILE(path = tensor<string, []>("@model_path/weights/weight.bin"), offset = tensor<uint64, []>(44343616)))];
            tensor<fp16, [1, 512, 1536]> linear_34_cast_fp16 = linear(bias = encoder_layer_5_intermediate_dense_bias_to_fp16, weight = encoder_layer_5_intermediate_dense_weight_to_fp16, x = input_131_cast_fp16)[name = tensor<string, []>("linear_34_cast_fp16")];
            tensor<string, []> input_135_mode_0 = const()[name = tensor<string, []>("input_135_mode_0"), val = tensor<string, []>("EXACT")];
            tensor<fp16, [1, 512, 1536]> input_135_cast_fp16 = gelu(mode = input_135_mode_0, x = linear_34_cast_fp16)[name = tensor<string, []>("input_135_cast_fp16")];
            tensor<fp16, [384, 1536]> encoder_layer_5_output_dense_weight_to_fp16 = const()[name = tensor<string, []>("encoder_layer_5_output_dense_weight_to_fp16"), val = tensor<fp16, [384, 1536]>(BLOBFILE(path = tensor<string, []>("@model_path/weights/weight.bin"), offset = tensor<uint64, []>(44346752)))];
            tensor<fp16, [384]> encoder_layer_5_output_dense_bias_to_fp16 = const()[name = tensor<string, []>("encoder_layer_5_output_dense_bias_to_fp16"), val = tensor<fp16, [384]>(BLOBFILE(path = tensor<string, []>("@model_path/weights/weight.bin"), offset = tensor<uint64, []>(45526464)))];
            tensor<fp16, [1, 512, 384]> linear_35_cast_fp16 = linear(bias = encoder_layer_5_output_dense_bias_to_fp16, weight = encoder_layer_5_output_dense_weight_to_fp16, x = input_135_cast_fp16)[name = tensor<string, []>("linear_35_cast_fp16")];
            tensor<fp16, [1, 512, 384]> input_139_cast_fp16 = add(x = linear_35_cast_fp16, y = input_131_cast_fp16)[name = tensor<string, []>("input_139_cast_fp16")];
            tensor<int32, [1]> input_141_axes_0 = const()[name = tensor<string, []>("input_141_axes_0"), val = tensor<int32, [1]>([-1])];
            tensor<fp16, [384]> encoder_layer_5_output_LayerNorm_weight_to_fp16 = const()[name = tensor<string, []>("encoder_layer_5_output_LayerNorm_weight_to_fp16"), val = tensor<fp16, [384]>(BLOBFILE(path = tensor<string, []>("@model_path/weights/weight.bin"), offset = tensor<uint64, []>(45527296)))];
            tensor<fp16, [384]> encoder_layer_5_output_LayerNorm_bias_to_fp16 = const()[name = tensor<string, []>("encoder_layer_5_output_LayerNorm_bias_to_fp16"), val = tensor<fp16, [384]>(BLOBFILE(path = tensor<string, []>("@model_path/weights/weight.bin"), offset = tensor<uint64, []>(45528128)))];
            tensor<fp16, [1, 512, 384]> input_141_cast_fp16 = layer_norm(axes = input_141_axes_0, beta = encoder_layer_5_output_LayerNorm_bias_to_fp16, epsilon = var_577_to_fp16, gamma = encoder_layer_5_output_LayerNorm_weight_to_fp16, x = input_139_cast_fp16)[name = tensor<string, []>("input_141_cast_fp16")];
            tensor<int32, []> var_662 = const()[name = tensor<string, []>("op_662"), val = tensor<int32, []>(-1)];
            tensor<fp16, [384, 384]> encoder_layer_6_attention_self_query_weight_to_fp16 = const()[name = tensor<string, []>("encoder_layer_6_attention_self_query_weight_to_fp16"), val = tensor<fp16, [384, 384]>(BLOBFILE(path = tensor<string, []>("@model_path/weights/weight.bin"), offset = tensor<uint64, []>(45528960)))];
            tensor<fp16, [384]> encoder_layer_6_attention_self_query_bias_to_fp16 = const()[name = tensor<string, []>("encoder_layer_6_attention_self_query_bias_to_fp16"), val = tensor<fp16, [384]>(BLOBFILE(path = tensor<string, []>("@model_path/weights/weight.bin"), offset = tensor<uint64, []>(45823936)))];
            tensor<fp16, [1, 512, 384]> linear_36_cast_fp16 = linear(bias = encoder_layer_6_attention_self_query_bias_to_fp16, weight = encoder_layer_6_attention_self_query_weight_to_fp16, x = input_141_cast_fp16)[name = tensor<string, []>("linear_36_cast_fp16")];
            tensor<fp16, [384, 384]> encoder_layer_6_attention_self_key_weight_to_fp16 = const()[name = tensor<string, []>("encoder_layer_6_attention_self_key_weight_to_fp16"), val = tensor<fp16, [384, 384]>(BLOBFILE(path = tensor<string, []>("@model_path/weights/weight.bin"), offset = tensor<uint64, []>(45824768)))];
            tensor<fp16, [384]> encoder_layer_6_attention_self_key_bias_to_fp16 = const()[name = tensor<string, []>("encoder_layer_6_attention_self_key_bias_to_fp16"), val = tensor<fp16, [384]>(BLOBFILE(path = tensor<string, []>("@model_path/weights/weight.bin"), offset = tensor<uint64, []>(46119744)))];
            tensor<fp16, [1, 512, 384]> linear_37_cast_fp16 = linear(bias = encoder_layer_6_attention_self_key_bias_to_fp16, weight = encoder_layer_6_attention_self_key_weight_to_fp16, x = input_141_cast_fp16)[name = tensor<string, []>("linear_37_cast_fp16")];
            tensor<int32, [4]> var_687 = const()[name = tensor<string, []>("op_687"), val = tensor<int32, [4]>([1, 512, 12, 32])];
            tensor<fp16, [1, 512, 12, 32]> x_75_cast_fp16 = reshape(shape = var_687, x = linear_37_cast_fp16)[name = tensor<string, []>("x_75_cast_fp16")];
            tensor<fp16, [384, 384]> encoder_layer_6_attention_self_value_weight_to_fp16 = const()[name = tensor<string, []>("encoder_layer_6_attention_self_value_weight_to_fp16"), val = tensor<fp16, [384, 384]>(BLOBFILE(path = tensor<string, []>("@model_path/weights/weight.bin"), offset = tensor<uint64, []>(46120576)))];
            tensor<fp16, [384]> encoder_layer_6_attention_self_value_bias_to_fp16 = const()[name = tensor<string, []>("encoder_layer_6_attention_self_value_bias_to_fp16"), val = tensor<fp16, [384]>(BLOBFILE(path = tensor<string, []>("@model_path/weights/weight.bin"), offset = tensor<uint64, []>(46415552)))];
            tensor<fp16, [1, 512, 384]> linear_38_cast_fp16 = linear(bias = encoder_layer_6_attention_self_value_bias_to_fp16, weight = encoder_layer_6_attention_self_value_weight_to_fp16, x = input_141_cast_fp16)[name = tensor<string, []>("linear_38_cast_fp16")];
            tensor<int32, [4]> var_696 = const()[name = tensor<string, []>("op_696"), val = tensor<int32, [4]>([1, 512, 12, 32])];
            tensor<fp16, [1, 512, 12, 32]> x_79_cast_fp16 = reshape(shape = var_696, x = linear_38_cast_fp16)[name = tensor<string, []>("x_79_cast_fp16")];
            tensor<int32, [4]> var_698 = const()[name = tensor<string, []>("op_698"), val = tensor<int32, [4]>([0, 2, 1, 3])];
            tensor<int32, [4]> var_702 = const()[name = tensor<string, []>("op_702"), val = tensor<int32, [4]>([1, 512, 12, 32])];
            tensor<fp16, [1, 512, 12, 32]> x_83_cast_fp16 = reshape(shape = var_702, x = linear_36_cast_fp16)[name = tensor<string, []>("x_83_cast_fp16")];
            tensor<bool, []> attention_scores_25_transpose_x_0 = const()[name = tensor<string, []>("attention_scores_25_transpose_x_0"), val = tensor<bool, []>(false)];
            tensor<bool, []> attention_scores_25_transpose_y_0 = const()[name = tensor<string, []>("attention_scores_25_transpose_y_0"), val = tensor<bool, []>(false)];
            tensor<int32, [4]> transpose_48_perm_0 = const()[name = tensor<string, []>("transpose_48_perm_0"), val = tensor<int32, [4]>([0, 2, -3, -1])];
            tensor<int32, [4]> transpose_49_perm_0 = const()[name = tensor<string, []>("transpose_49_perm_0"), val = tensor<int32, [4]>([0, 2, -1, -3])];
            tensor<fp16, [1, 12, 32, 512]> transpose_49 = transpose(perm = transpose_49_perm_0, x = x_75_cast_fp16)[name = tensor<string, []>("transpose_81")];
            tensor<fp16, [1, 12, 512, 32]> transpose_48 = transpose(perm = transpose_48_perm_0, x = x_83_cast_fp16)[name = tensor<string, []>("transpose_82")];
            tensor<fp16, [1, 12, 512, 512]> attention_scores_25_cast_fp16 = matmul(transpose_x = attention_scores_25_transpose_x_0, transpose_y = attention_scores_25_transpose_y_0, x = transpose_48, y = transpose_49)[name = tensor<string, []>("attention_scores_25_cast_fp16")];
            tensor<fp16, []> _inversed_attention_scores_27_y_0_to_fp16 = const()[name = tensor<string, []>("_inversed_attention_scores_27_y_0_to_fp16"), val = tensor<fp16, []>(0x1.6ap-3)];
            tensor<fp16, [1, 12, 512, 512]> _inversed_attention_scores_27_cast_fp16 = mul(x = attention_scores_25_cast_fp16, y = _inversed_attention_scores_27_y_0_to_fp16)[name = tensor<string, []>("_inversed_attention_scores_27_cast_fp16")];
            tensor<fp16, [1, 12, 512, 512]> input_143_cast_fp16 = add(x = _inversed_attention_scores_27_cast_fp16, y = attention_mask_cast_fp16)[name = tensor<string, []>("input_143_cast_fp16")];
            tensor<fp16, [1, 12, 512, 512]> input_145_cast_fp16 = softmax(axis = var_662, x = input_143_cast_fp16)[name = tensor<string, []>("input_145_cast_fp16")];
            tensor<bool, []> context_layer_25_transpose_x_0 = const()[name = tensor<string, []>("context_layer_25_transpose_x_0"), val = tensor<bool, []>(false)];
            tensor<bool, []> context_layer_25_transpose_y_0 = const()[name = tensor<string, []>("context_layer_25_transpose_y_0"), val = tensor<bool, []>(false)];
            tensor<fp16, [1, 12, 512, 32]> value_layer_13_cast_fp16 = transpose(perm = var_698, x = x_79_cast_fp16)[name = tensor<string, []>("transpose_83")];
            tensor<fp16, [1, 12, 512, 32]> context_layer_25_cast_fp16 = matmul(transpose_x = context_layer_25_transpose_x_0, transpose_y = context_layer_25_transpose_y_0, x = input_145_cast_fp16, y = value_layer_13_cast_fp16)[name = tensor<string, []>("context_layer_25_cast_fp16")];
            tensor<int32, [4]> var_714 = const()[name = tensor<string, []>("op_714"), val = tensor<int32, [4]>([0, 2, 1, 3])];
            tensor<int32, [3]> var_719 = const()[name = tensor<string, []>("op_719"), val = tensor<int32, [3]>([1, 512, 384])];
            tensor<fp16, [1, 512, 12, 32]> var_715_cast_fp16 = transpose(perm = var_714, x = context_layer_25_cast_fp16)[name = tensor<string, []>("transpose_80")];
            tensor<fp16, [1, 512, 384]> input_147_cast_fp16 = reshape(shape = var_719, x = var_715_cast_fp16)[name = tensor<string, []>("input_147_cast_fp16")];
            tensor<fp16, [384, 384]> encoder_layer_6_attention_output_dense_weight_to_fp16 = const()[name = tensor<string, []>("encoder_layer_6_attention_output_dense_weight_to_fp16"), val = tensor<fp16, [384, 384]>(BLOBFILE(path = tensor<string, []>("@model_path/weights/weight.bin"), offset = tensor<uint64, []>(46416384)))];
            tensor<fp16, [384]> encoder_layer_6_attention_output_dense_bias_to_fp16 = const()[name = tensor<string, []>("encoder_layer_6_attention_output_dense_bias_to_fp16"), val = tensor<fp16, [384]>(BLOBFILE(path = tensor<string, []>("@model_path/weights/weight.bin"), offset = tensor<uint64, []>(46711360)))];
            tensor<fp16, [1, 512, 384]> linear_39_cast_fp16 = linear(bias = encoder_layer_6_attention_output_dense_bias_to_fp16, weight = encoder_layer_6_attention_output_dense_weight_to_fp16, x = input_147_cast_fp16)[name = tensor<string, []>("linear_39_cast_fp16")];
            tensor<fp16, [1, 512, 384]> input_151_cast_fp16 = add(x = linear_39_cast_fp16, y = input_141_cast_fp16)[name = tensor<string, []>("input_151_cast_fp16")];
            tensor<int32, [1]> input_153_axes_0 = const()[name = tensor<string, []>("input_153_axes_0"), val = tensor<int32, [1]>([-1])];
            tensor<fp16, [384]> encoder_layer_6_attention_output_LayerNorm_weight_to_fp16 = const()[name = tensor<string, []>("encoder_layer_6_attention_output_LayerNorm_weight_to_fp16"), val = tensor<fp16, [384]>(BLOBFILE(path = tensor<string, []>("@model_path/weights/weight.bin"), offset = tensor<uint64, []>(46712192)))];
            tensor<fp16, [384]> encoder_layer_6_attention_output_LayerNorm_bias_to_fp16 = const()[name = tensor<string, []>("encoder_layer_6_attention_output_LayerNorm_bias_to_fp16"), val = tensor<fp16, [384]>(BLOBFILE(path = tensor<string, []>("@model_path/weights/weight.bin"), offset = tensor<uint64, []>(46713024)))];
            tensor<fp16, []> var_669_to_fp16 = const()[name = tensor<string, []>("op_669_to_fp16"), val = tensor<fp16, []>(0x1p-24)];
            tensor<fp16, [1, 512, 384]> input_153_cast_fp16 = layer_norm(axes = input_153_axes_0, beta = encoder_layer_6_attention_output_LayerNorm_bias_to_fp16, epsilon = var_669_to_fp16, gamma = encoder_layer_6_attention_output_LayerNorm_weight_to_fp16, x = input_151_cast_fp16)[name = tensor<string, []>("input_153_cast_fp16")];
            tensor<fp16, [1536, 384]> encoder_layer_6_intermediate_dense_weight_to_fp16 = const()[name = tensor<string, []>("encoder_layer_6_intermediate_dense_weight_to_fp16"), val = tensor<fp16, [1536, 384]>(BLOBFILE(path = tensor<string, []>("@model_path/weights/weight.bin"), offset = tensor<uint64, []>(46713856)))];
            tensor<fp16, [1536]> encoder_layer_6_intermediate_dense_bias_to_fp16 = const()[name = tensor<string, []>("encoder_layer_6_intermediate_dense_bias_to_fp16"), val = tensor<fp16, [1536]>(BLOBFILE(path = tensor<string, []>("@model_path/weights/weight.bin"), offset = tensor<uint64, []>(47893568)))];
            tensor<fp16, [1, 512, 1536]> linear_40_cast_fp16 = linear(bias = encoder_layer_6_intermediate_dense_bias_to_fp16, weight = encoder_layer_6_intermediate_dense_weight_to_fp16, x = input_153_cast_fp16)[name = tensor<string, []>("linear_40_cast_fp16")];
            tensor<string, []> input_157_mode_0 = const()[name = tensor<string, []>("input_157_mode_0"), val = tensor<string, []>("EXACT")];
            tensor<fp16, [1, 512, 1536]> input_157_cast_fp16 = gelu(mode = input_157_mode_0, x = linear_40_cast_fp16)[name = tensor<string, []>("input_157_cast_fp16")];
            tensor<fp16, [384, 1536]> encoder_layer_6_output_dense_weight_to_fp16 = const()[name = tensor<string, []>("encoder_layer_6_output_dense_weight_to_fp16"), val = tensor<fp16, [384, 1536]>(BLOBFILE(path = tensor<string, []>("@model_path/weights/weight.bin"), offset = tensor<uint64, []>(47896704)))];
            tensor<fp16, [384]> encoder_layer_6_output_dense_bias_to_fp16 = const()[name = tensor<string, []>("encoder_layer_6_output_dense_bias_to_fp16"), val = tensor<fp16, [384]>(BLOBFILE(path = tensor<string, []>("@model_path/weights/weight.bin"), offset = tensor<uint64, []>(49076416)))];
            tensor<fp16, [1, 512, 384]> linear_41_cast_fp16 = linear(bias = encoder_layer_6_output_dense_bias_to_fp16, weight = encoder_layer_6_output_dense_weight_to_fp16, x = input_157_cast_fp16)[name = tensor<string, []>("linear_41_cast_fp16")];
            tensor<fp16, [1, 512, 384]> input_161_cast_fp16 = add(x = linear_41_cast_fp16, y = input_153_cast_fp16)[name = tensor<string, []>("input_161_cast_fp16")];
            tensor<int32, [1]> input_163_axes_0 = const()[name = tensor<string, []>("input_163_axes_0"), val = tensor<int32, [1]>([-1])];
            tensor<fp16, [384]> encoder_layer_6_output_LayerNorm_weight_to_fp16 = const()[name = tensor<string, []>("encoder_layer_6_output_LayerNorm_weight_to_fp16"), val = tensor<fp16, [384]>(BLOBFILE(path = tensor<string, []>("@model_path/weights/weight.bin"), offset = tensor<uint64, []>(49077248)))];
            tensor<fp16, [384]> encoder_layer_6_output_LayerNorm_bias_to_fp16 = const()[name = tensor<string, []>("encoder_layer_6_output_LayerNorm_bias_to_fp16"), val = tensor<fp16, [384]>(BLOBFILE(path = tensor<string, []>("@model_path/weights/weight.bin"), offset = tensor<uint64, []>(49078080)))];
            tensor<fp16, [1, 512, 384]> input_163_cast_fp16 = layer_norm(axes = input_163_axes_0, beta = encoder_layer_6_output_LayerNorm_bias_to_fp16, epsilon = var_669_to_fp16, gamma = encoder_layer_6_output_LayerNorm_weight_to_fp16, x = input_161_cast_fp16)[name = tensor<string, []>("input_163_cast_fp16")];
            tensor<int32, []> var_754 = const()[name = tensor<string, []>("op_754"), val = tensor<int32, []>(-1)];
            tensor<fp16, [384, 384]> encoder_layer_7_attention_self_query_weight_to_fp16 = const()[name = tensor<string, []>("encoder_layer_7_attention_self_query_weight_to_fp16"), val = tensor<fp16, [384, 384]>(BLOBFILE(path = tensor<string, []>("@model_path/weights/weight.bin"), offset = tensor<uint64, []>(49078912)))];
            tensor<fp16, [384]> encoder_layer_7_attention_self_query_bias_to_fp16 = const()[name = tensor<string, []>("encoder_layer_7_attention_self_query_bias_to_fp16"), val = tensor<fp16, [384]>(BLOBFILE(path = tensor<string, []>("@model_path/weights/weight.bin"), offset = tensor<uint64, []>(49373888)))];
            tensor<fp16, [1, 512, 384]> linear_42_cast_fp16 = linear(bias = encoder_layer_7_attention_self_query_bias_to_fp16, weight = encoder_layer_7_attention_self_query_weight_to_fp16, x = input_163_cast_fp16)[name = tensor<string, []>("linear_42_cast_fp16")];
            tensor<fp16, [384, 384]> encoder_layer_7_attention_self_key_weight_to_fp16 = const()[name = tensor<string, []>("encoder_layer_7_attention_self_key_weight_to_fp16"), val = tensor<fp16, [384, 384]>(BLOBFILE(path = tensor<string, []>("@model_path/weights/weight.bin"), offset = tensor<uint64, []>(49374720)))];
            tensor<fp16, [384]> encoder_layer_7_attention_self_key_bias_to_fp16 = const()[name = tensor<string, []>("encoder_layer_7_attention_self_key_bias_to_fp16"), val = tensor<fp16, [384]>(BLOBFILE(path = tensor<string, []>("@model_path/weights/weight.bin"), offset = tensor<uint64, []>(49669696)))];
            tensor<fp16, [1, 512, 384]> linear_43_cast_fp16 = linear(bias = encoder_layer_7_attention_self_key_bias_to_fp16, weight = encoder_layer_7_attention_self_key_weight_to_fp16, x = input_163_cast_fp16)[name = tensor<string, []>("linear_43_cast_fp16")];
            tensor<int32, [4]> var_779 = const()[name = tensor<string, []>("op_779"), val = tensor<int32, [4]>([1, 512, 12, 32])];
            tensor<fp16, [1, 512, 12, 32]> x_87_cast_fp16 = reshape(shape = var_779, x = linear_43_cast_fp16)[name = tensor<string, []>("x_87_cast_fp16")];
            tensor<fp16, [384, 384]> encoder_layer_7_attention_self_value_weight_to_fp16 = const()[name = tensor<string, []>("encoder_layer_7_attention_self_value_weight_to_fp16"), val = tensor<fp16, [384, 384]>(BLOBFILE(path = tensor<string, []>("@model_path/weights/weight.bin"), offset = tensor<uint64, []>(49670528)))];
            tensor<fp16, [384]> encoder_layer_7_attention_self_value_bias_to_fp16 = const()[name = tensor<string, []>("encoder_layer_7_attention_self_value_bias_to_fp16"), val = tensor<fp16, [384]>(BLOBFILE(path = tensor<string, []>("@model_path/weights/weight.bin"), offset = tensor<uint64, []>(49965504)))];
            tensor<fp16, [1, 512, 384]> linear_44_cast_fp16 = linear(bias = encoder_layer_7_attention_self_value_bias_to_fp16, weight = encoder_layer_7_attention_self_value_weight_to_fp16, x = input_163_cast_fp16)[name = tensor<string, []>("linear_44_cast_fp16")];
            tensor<int32, [4]> var_788 = const()[name = tensor<string, []>("op_788"), val = tensor<int32, [4]>([1, 512, 12, 32])];
            tensor<fp16, [1, 512, 12, 32]> x_91_cast_fp16 = reshape(shape = var_788, x = linear_44_cast_fp16)[name = tensor<string, []>("x_91_cast_fp16")];
            tensor<int32, [4]> var_790 = const()[name = tensor<string, []>("op_790"), val = tensor<int32, [4]>([0, 2, 1, 3])];
            tensor<int32, [4]> var_794 = const()[name = tensor<string, []>("op_794"), val = tensor<int32, [4]>([1, 512, 12, 32])];
            tensor<fp16, [1, 512, 12, 32]> x_95_cast_fp16 = reshape(shape = var_794, x = linear_42_cast_fp16)[name = tensor<string, []>("x_95_cast_fp16")];
            tensor<bool, []> attention_scores_29_transpose_x_0 = const()[name = tensor<string, []>("attention_scores_29_transpose_x_0"), val = tensor<bool, []>(false)];
            tensor<bool, []> attention_scores_29_transpose_y_0 = const()[name = tensor<string, []>("attention_scores_29_transpose_y_0"), val = tensor<bool, []>(false)];
            tensor<int32, [4]> transpose_50_perm_0 = const()[name = tensor<string, []>("transpose_50_perm_0"), val = tensor<int32, [4]>([0, 2, -3, -1])];
            tensor<int32, [4]> transpose_51_perm_0 = const()[name = tensor<string, []>("transpose_51_perm_0"), val = tensor<int32, [4]>([0, 2, -1, -3])];
            tensor<fp16, [1, 12, 32, 512]> transpose_51 = transpose(perm = transpose_51_perm_0, x = x_87_cast_fp16)[name = tensor<string, []>("transpose_77")];
            tensor<fp16, [1, 12, 512, 32]> transpose_50 = transpose(perm = transpose_50_perm_0, x = x_95_cast_fp16)[name = tensor<string, []>("transpose_78")];
            tensor<fp16, [1, 12, 512, 512]> attention_scores_29_cast_fp16 = matmul(transpose_x = attention_scores_29_transpose_x_0, transpose_y = attention_scores_29_transpose_y_0, x = transpose_50, y = transpose_51)[name = tensor<string, []>("attention_scores_29_cast_fp16")];
            tensor<fp16, []> _inversed_attention_scores_31_y_0_to_fp16 = const()[name = tensor<string, []>("_inversed_attention_scores_31_y_0_to_fp16"), val = tensor<fp16, []>(0x1.6ap-3)];
            tensor<fp16, [1, 12, 512, 512]> _inversed_attention_scores_31_cast_fp16 = mul(x = attention_scores_29_cast_fp16, y = _inversed_attention_scores_31_y_0_to_fp16)[name = tensor<string, []>("_inversed_attention_scores_31_cast_fp16")];
            tensor<fp16, [1, 12, 512, 512]> input_165_cast_fp16 = add(x = _inversed_attention_scores_31_cast_fp16, y = attention_mask_cast_fp16)[name = tensor<string, []>("input_165_cast_fp16")];
            tensor<fp16, [1, 12, 512, 512]> input_167_cast_fp16 = softmax(axis = var_754, x = input_165_cast_fp16)[name = tensor<string, []>("input_167_cast_fp16")];
            tensor<bool, []> context_layer_29_transpose_x_0 = const()[name = tensor<string, []>("context_layer_29_transpose_x_0"), val = tensor<bool, []>(false)];
            tensor<bool, []> context_layer_29_transpose_y_0 = const()[name = tensor<string, []>("context_layer_29_transpose_y_0"), val = tensor<bool, []>(false)];
            tensor<fp16, [1, 12, 512, 32]> value_layer_15_cast_fp16 = transpose(perm = var_790, x = x_91_cast_fp16)[name = tensor<string, []>("transpose_79")];
            tensor<fp16, [1, 12, 512, 32]> context_layer_29_cast_fp16 = matmul(transpose_x = context_layer_29_transpose_x_0, transpose_y = context_layer_29_transpose_y_0, x = input_167_cast_fp16, y = value_layer_15_cast_fp16)[name = tensor<string, []>("context_layer_29_cast_fp16")];
            tensor<int32, [4]> var_806 = const()[name = tensor<string, []>("op_806"), val = tensor<int32, [4]>([0, 2, 1, 3])];
            tensor<int32, [3]> var_811 = const()[name = tensor<string, []>("op_811"), val = tensor<int32, [3]>([1, 512, 384])];
            tensor<fp16, [1, 512, 12, 32]> var_807_cast_fp16 = transpose(perm = var_806, x = context_layer_29_cast_fp16)[name = tensor<string, []>("transpose_76")];
            tensor<fp16, [1, 512, 384]> input_169_cast_fp16 = reshape(shape = var_811, x = var_807_cast_fp16)[name = tensor<string, []>("input_169_cast_fp16")];
            tensor<fp16, [384, 384]> encoder_layer_7_attention_output_dense_weight_to_fp16 = const()[name = tensor<string, []>("encoder_layer_7_attention_output_dense_weight_to_fp16"), val = tensor<fp16, [384, 384]>(BLOBFILE(path = tensor<string, []>("@model_path/weights/weight.bin"), offset = tensor<uint64, []>(49966336)))];
            tensor<fp16, [384]> encoder_layer_7_attention_output_dense_bias_to_fp16 = const()[name = tensor<string, []>("encoder_layer_7_attention_output_dense_bias_to_fp16"), val = tensor<fp16, [384]>(BLOBFILE(path = tensor<string, []>("@model_path/weights/weight.bin"), offset = tensor<uint64, []>(50261312)))];
            tensor<fp16, [1, 512, 384]> linear_45_cast_fp16 = linear(bias = encoder_layer_7_attention_output_dense_bias_to_fp16, weight = encoder_layer_7_attention_output_dense_weight_to_fp16, x = input_169_cast_fp16)[name = tensor<string, []>("linear_45_cast_fp16")];
            tensor<fp16, [1, 512, 384]> input_173_cast_fp16 = add(x = linear_45_cast_fp16, y = input_163_cast_fp16)[name = tensor<string, []>("input_173_cast_fp16")];
            tensor<int32, [1]> input_175_axes_0 = const()[name = tensor<string, []>("input_175_axes_0"), val = tensor<int32, [1]>([-1])];
            tensor<fp16, [384]> encoder_layer_7_attention_output_LayerNorm_weight_to_fp16 = const()[name = tensor<string, []>("encoder_layer_7_attention_output_LayerNorm_weight_to_fp16"), val = tensor<fp16, [384]>(BLOBFILE(path = tensor<string, []>("@model_path/weights/weight.bin"), offset = tensor<uint64, []>(50262144)))];
            tensor<fp16, [384]> encoder_layer_7_attention_output_LayerNorm_bias_to_fp16 = const()[name = tensor<string, []>("encoder_layer_7_attention_output_LayerNorm_bias_to_fp16"), val = tensor<fp16, [384]>(BLOBFILE(path = tensor<string, []>("@model_path/weights/weight.bin"), offset = tensor<uint64, []>(50262976)))];
            tensor<fp16, []> var_761_to_fp16 = const()[name = tensor<string, []>("op_761_to_fp16"), val = tensor<fp16, []>(0x1p-24)];
            tensor<fp16, [1, 512, 384]> input_175_cast_fp16 = layer_norm(axes = input_175_axes_0, beta = encoder_layer_7_attention_output_LayerNorm_bias_to_fp16, epsilon = var_761_to_fp16, gamma = encoder_layer_7_attention_output_LayerNorm_weight_to_fp16, x = input_173_cast_fp16)[name = tensor<string, []>("input_175_cast_fp16")];
            tensor<fp16, [1536, 384]> encoder_layer_7_intermediate_dense_weight_to_fp16 = const()[name = tensor<string, []>("encoder_layer_7_intermediate_dense_weight_to_fp16"), val = tensor<fp16, [1536, 384]>(BLOBFILE(path = tensor<string, []>("@model_path/weights/weight.bin"), offset = tensor<uint64, []>(50263808)))];
            tensor<fp16, [1536]> encoder_layer_7_intermediate_dense_bias_to_fp16 = const()[name = tensor<string, []>("encoder_layer_7_intermediate_dense_bias_to_fp16"), val = tensor<fp16, [1536]>(BLOBFILE(path = tensor<string, []>("@model_path/weights/weight.bin"), offset = tensor<uint64, []>(51443520)))];
            tensor<fp16, [1, 512, 1536]> linear_46_cast_fp16 = linear(bias = encoder_layer_7_intermediate_dense_bias_to_fp16, weight = encoder_layer_7_intermediate_dense_weight_to_fp16, x = input_175_cast_fp16)[name = tensor<string, []>("linear_46_cast_fp16")];
            tensor<string, []> input_179_mode_0 = const()[name = tensor<string, []>("input_179_mode_0"), val = tensor<string, []>("EXACT")];
            tensor<fp16, [1, 512, 1536]> input_179_cast_fp16 = gelu(mode = input_179_mode_0, x = linear_46_cast_fp16)[name = tensor<string, []>("input_179_cast_fp16")];
            tensor<fp16, [384, 1536]> encoder_layer_7_output_dense_weight_to_fp16 = const()[name = tensor<string, []>("encoder_layer_7_output_dense_weight_to_fp16"), val = tensor<fp16, [384, 1536]>(BLOBFILE(path = tensor<string, []>("@model_path/weights/weight.bin"), offset = tensor<uint64, []>(51446656)))];
            tensor<fp16, [384]> encoder_layer_7_output_dense_bias_to_fp16 = const()[name = tensor<string, []>("encoder_layer_7_output_dense_bias_to_fp16"), val = tensor<fp16, [384]>(BLOBFILE(path = tensor<string, []>("@model_path/weights/weight.bin"), offset = tensor<uint64, []>(52626368)))];
            tensor<fp16, [1, 512, 384]> linear_47_cast_fp16 = linear(bias = encoder_layer_7_output_dense_bias_to_fp16, weight = encoder_layer_7_output_dense_weight_to_fp16, x = input_179_cast_fp16)[name = tensor<string, []>("linear_47_cast_fp16")];
            tensor<fp16, [1, 512, 384]> input_183_cast_fp16 = add(x = linear_47_cast_fp16, y = input_175_cast_fp16)[name = tensor<string, []>("input_183_cast_fp16")];
            tensor<int32, [1]> input_185_axes_0 = const()[name = tensor<string, []>("input_185_axes_0"), val = tensor<int32, [1]>([-1])];
            tensor<fp16, [384]> encoder_layer_7_output_LayerNorm_weight_to_fp16 = const()[name = tensor<string, []>("encoder_layer_7_output_LayerNorm_weight_to_fp16"), val = tensor<fp16, [384]>(BLOBFILE(path = tensor<string, []>("@model_path/weights/weight.bin"), offset = tensor<uint64, []>(52627200)))];
            tensor<fp16, [384]> encoder_layer_7_output_LayerNorm_bias_to_fp16 = const()[name = tensor<string, []>("encoder_layer_7_output_LayerNorm_bias_to_fp16"), val = tensor<fp16, [384]>(BLOBFILE(path = tensor<string, []>("@model_path/weights/weight.bin"), offset = tensor<uint64, []>(52628032)))];
            tensor<fp16, [1, 512, 384]> input_185_cast_fp16 = layer_norm(axes = input_185_axes_0, beta = encoder_layer_7_output_LayerNorm_bias_to_fp16, epsilon = var_761_to_fp16, gamma = encoder_layer_7_output_LayerNorm_weight_to_fp16, x = input_183_cast_fp16)[name = tensor<string, []>("input_185_cast_fp16")];
            tensor<int32, []> var_846 = const()[name = tensor<string, []>("op_846"), val = tensor<int32, []>(-1)];
            tensor<fp16, [384, 384]> encoder_layer_8_attention_self_query_weight_to_fp16 = const()[name = tensor<string, []>("encoder_layer_8_attention_self_query_weight_to_fp16"), val = tensor<fp16, [384, 384]>(BLOBFILE(path = tensor<string, []>("@model_path/weights/weight.bin"), offset = tensor<uint64, []>(52628864)))];
            tensor<fp16, [384]> encoder_layer_8_attention_self_query_bias_to_fp16 = const()[name = tensor<string, []>("encoder_layer_8_attention_self_query_bias_to_fp16"), val = tensor<fp16, [384]>(BLOBFILE(path = tensor<string, []>("@model_path/weights/weight.bin"), offset = tensor<uint64, []>(52923840)))];
            tensor<fp16, [1, 512, 384]> linear_48_cast_fp16 = linear(bias = encoder_layer_8_attention_self_query_bias_to_fp16, weight = encoder_layer_8_attention_self_query_weight_to_fp16, x = input_185_cast_fp16)[name = tensor<string, []>("linear_48_cast_fp16")];
            tensor<fp16, [384, 384]> encoder_layer_8_attention_self_key_weight_to_fp16 = const()[name = tensor<string, []>("encoder_layer_8_attention_self_key_weight_to_fp16"), val = tensor<fp16, [384, 384]>(BLOBFILE(path = tensor<string, []>("@model_path/weights/weight.bin"), offset = tensor<uint64, []>(52924672)))];
            tensor<fp16, [384]> encoder_layer_8_attention_self_key_bias_to_fp16 = const()[name = tensor<string, []>("encoder_layer_8_attention_self_key_bias_to_fp16"), val = tensor<fp16, [384]>(BLOBFILE(path = tensor<string, []>("@model_path/weights/weight.bin"), offset = tensor<uint64, []>(53219648)))];
            tensor<fp16, [1, 512, 384]> linear_49_cast_fp16 = linear(bias = encoder_layer_8_attention_self_key_bias_to_fp16, weight = encoder_layer_8_attention_self_key_weight_to_fp16, x = input_185_cast_fp16)[name = tensor<string, []>("linear_49_cast_fp16")];
            tensor<int32, [4]> var_871 = const()[name = tensor<string, []>("op_871"), val = tensor<int32, [4]>([1, 512, 12, 32])];
            tensor<fp16, [1, 512, 12, 32]> x_99_cast_fp16 = reshape(shape = var_871, x = linear_49_cast_fp16)[name = tensor<string, []>("x_99_cast_fp16")];
            tensor<fp16, [384, 384]> encoder_layer_8_attention_self_value_weight_to_fp16 = const()[name = tensor<string, []>("encoder_layer_8_attention_self_value_weight_to_fp16"), val = tensor<fp16, [384, 384]>(BLOBFILE(path = tensor<string, []>("@model_path/weights/weight.bin"), offset = tensor<uint64, []>(53220480)))];
            tensor<fp16, [384]> encoder_layer_8_attention_self_value_bias_to_fp16 = const()[name = tensor<string, []>("encoder_layer_8_attention_self_value_bias_to_fp16"), val = tensor<fp16, [384]>(BLOBFILE(path = tensor<string, []>("@model_path/weights/weight.bin"), offset = tensor<uint64, []>(53515456)))];
            tensor<fp16, [1, 512, 384]> linear_50_cast_fp16 = linear(bias = encoder_layer_8_attention_self_value_bias_to_fp16, weight = encoder_layer_8_attention_self_value_weight_to_fp16, x = input_185_cast_fp16)[name = tensor<string, []>("linear_50_cast_fp16")];
            tensor<int32, [4]> var_880 = const()[name = tensor<string, []>("op_880"), val = tensor<int32, [4]>([1, 512, 12, 32])];
            tensor<fp16, [1, 512, 12, 32]> x_103_cast_fp16 = reshape(shape = var_880, x = linear_50_cast_fp16)[name = tensor<string, []>("x_103_cast_fp16")];
            tensor<int32, [4]> var_882 = const()[name = tensor<string, []>("op_882"), val = tensor<int32, [4]>([0, 2, 1, 3])];
            tensor<int32, [4]> var_886 = const()[name = tensor<string, []>("op_886"), val = tensor<int32, [4]>([1, 512, 12, 32])];
            tensor<fp16, [1, 512, 12, 32]> x_107_cast_fp16 = reshape(shape = var_886, x = linear_48_cast_fp16)[name = tensor<string, []>("x_107_cast_fp16")];
            tensor<bool, []> attention_scores_33_transpose_x_0 = const()[name = tensor<string, []>("attention_scores_33_transpose_x_0"), val = tensor<bool, []>(false)];
            tensor<bool, []> attention_scores_33_transpose_y_0 = const()[name = tensor<string, []>("attention_scores_33_transpose_y_0"), val = tensor<bool, []>(false)];
            tensor<int32, [4]> transpose_52_perm_0 = const()[name = tensor<string, []>("transpose_52_perm_0"), val = tensor<int32, [4]>([0, 2, -3, -1])];
            tensor<int32, [4]> transpose_53_perm_0 = const()[name = tensor<string, []>("transpose_53_perm_0"), val = tensor<int32, [4]>([0, 2, -1, -3])];
            tensor<fp16, [1, 12, 32, 512]> transpose_53 = transpose(perm = transpose_53_perm_0, x = x_99_cast_fp16)[name = tensor<string, []>("transpose_73")];
            tensor<fp16, [1, 12, 512, 32]> transpose_52 = transpose(perm = transpose_52_perm_0, x = x_107_cast_fp16)[name = tensor<string, []>("transpose_74")];
            tensor<fp16, [1, 12, 512, 512]> attention_scores_33_cast_fp16 = matmul(transpose_x = attention_scores_33_transpose_x_0, transpose_y = attention_scores_33_transpose_y_0, x = transpose_52, y = transpose_53)[name = tensor<string, []>("attention_scores_33_cast_fp16")];
            tensor<fp16, []> _inversed_attention_scores_35_y_0_to_fp16 = const()[name = tensor<string, []>("_inversed_attention_scores_35_y_0_to_fp16"), val = tensor<fp16, []>(0x1.6ap-3)];
            tensor<fp16, [1, 12, 512, 512]> _inversed_attention_scores_35_cast_fp16 = mul(x = attention_scores_33_cast_fp16, y = _inversed_attention_scores_35_y_0_to_fp16)[name = tensor<string, []>("_inversed_attention_scores_35_cast_fp16")];
            tensor<fp16, [1, 12, 512, 512]> input_187_cast_fp16 = add(x = _inversed_attention_scores_35_cast_fp16, y = attention_mask_cast_fp16)[name = tensor<string, []>("input_187_cast_fp16")];
            tensor<fp16, [1, 12, 512, 512]> input_189_cast_fp16 = softmax(axis = var_846, x = input_187_cast_fp16)[name = tensor<string, []>("input_189_cast_fp16")];
            tensor<bool, []> context_layer_33_transpose_x_0 = const()[name = tensor<string, []>("context_layer_33_transpose_x_0"), val = tensor<bool, []>(false)];
            tensor<bool, []> context_layer_33_transpose_y_0 = const()[name = tensor<string, []>("context_layer_33_transpose_y_0"), val = tensor<bool, []>(false)];
            tensor<fp16, [1, 12, 512, 32]> value_layer_17_cast_fp16 = transpose(perm = var_882, x = x_103_cast_fp16)[name = tensor<string, []>("transpose_75")];
            tensor<fp16, [1, 12, 512, 32]> context_layer_33_cast_fp16 = matmul(transpose_x = context_layer_33_transpose_x_0, transpose_y = context_layer_33_transpose_y_0, x = input_189_cast_fp16, y = value_layer_17_cast_fp16)[name = tensor<string, []>("context_layer_33_cast_fp16")];
            tensor<int32, [4]> var_898 = const()[name = tensor<string, []>("op_898"), val = tensor<int32, [4]>([0, 2, 1, 3])];
            tensor<int32, [3]> var_903 = const()[name = tensor<string, []>("op_903"), val = tensor<int32, [3]>([1, 512, 384])];
            tensor<fp16, [1, 512, 12, 32]> var_899_cast_fp16 = transpose(perm = var_898, x = context_layer_33_cast_fp16)[name = tensor<string, []>("transpose_72")];
            tensor<fp16, [1, 512, 384]> input_191_cast_fp16 = reshape(shape = var_903, x = var_899_cast_fp16)[name = tensor<string, []>("input_191_cast_fp16")];
            tensor<fp16, [384, 384]> encoder_layer_8_attention_output_dense_weight_to_fp16 = const()[name = tensor<string, []>("encoder_layer_8_attention_output_dense_weight_to_fp16"), val = tensor<fp16, [384, 384]>(BLOBFILE(path = tensor<string, []>("@model_path/weights/weight.bin"), offset = tensor<uint64, []>(53516288)))];
            tensor<fp16, [384]> encoder_layer_8_attention_output_dense_bias_to_fp16 = const()[name = tensor<string, []>("encoder_layer_8_attention_output_dense_bias_to_fp16"), val = tensor<fp16, [384]>(BLOBFILE(path = tensor<string, []>("@model_path/weights/weight.bin"), offset = tensor<uint64, []>(53811264)))];
            tensor<fp16, [1, 512, 384]> linear_51_cast_fp16 = linear(bias = encoder_layer_8_attention_output_dense_bias_to_fp16, weight = encoder_layer_8_attention_output_dense_weight_to_fp16, x = input_191_cast_fp16)[name = tensor<string, []>("linear_51_cast_fp16")];
            tensor<fp16, [1, 512, 384]> input_195_cast_fp16 = add(x = linear_51_cast_fp16, y = input_185_cast_fp16)[name = tensor<string, []>("input_195_cast_fp16")];
            tensor<int32, [1]> input_197_axes_0 = const()[name = tensor<string, []>("input_197_axes_0"), val = tensor<int32, [1]>([-1])];
            tensor<fp16, [384]> encoder_layer_8_attention_output_LayerNorm_weight_to_fp16 = const()[name = tensor<string, []>("encoder_layer_8_attention_output_LayerNorm_weight_to_fp16"), val = tensor<fp16, [384]>(BLOBFILE(path = tensor<string, []>("@model_path/weights/weight.bin"), offset = tensor<uint64, []>(53812096)))];
            tensor<fp16, [384]> encoder_layer_8_attention_output_LayerNorm_bias_to_fp16 = const()[name = tensor<string, []>("encoder_layer_8_attention_output_LayerNorm_bias_to_fp16"), val = tensor<fp16, [384]>(BLOBFILE(path = tensor<string, []>("@model_path/weights/weight.bin"), offset = tensor<uint64, []>(53812928)))];
            tensor<fp16, []> var_853_to_fp16 = const()[name = tensor<string, []>("op_853_to_fp16"), val = tensor<fp16, []>(0x1p-24)];
            tensor<fp16, [1, 512, 384]> input_197_cast_fp16 = layer_norm(axes = input_197_axes_0, beta = encoder_layer_8_attention_output_LayerNorm_bias_to_fp16, epsilon = var_853_to_fp16, gamma = encoder_layer_8_attention_output_LayerNorm_weight_to_fp16, x = input_195_cast_fp16)[name = tensor<string, []>("input_197_cast_fp16")];
            tensor<fp16, [1536, 384]> encoder_layer_8_intermediate_dense_weight_to_fp16 = const()[name = tensor<string, []>("encoder_layer_8_intermediate_dense_weight_to_fp16"), val = tensor<fp16, [1536, 384]>(BLOBFILE(path = tensor<string, []>("@model_path/weights/weight.bin"), offset = tensor<uint64, []>(53813760)))];
            tensor<fp16, [1536]> encoder_layer_8_intermediate_dense_bias_to_fp16 = const()[name = tensor<string, []>("encoder_layer_8_intermediate_dense_bias_to_fp16"), val = tensor<fp16, [1536]>(BLOBFILE(path = tensor<string, []>("@model_path/weights/weight.bin"), offset = tensor<uint64, []>(54993472)))];
            tensor<fp16, [1, 512, 1536]> linear_52_cast_fp16 = linear(bias = encoder_layer_8_intermediate_dense_bias_to_fp16, weight = encoder_layer_8_intermediate_dense_weight_to_fp16, x = input_197_cast_fp16)[name = tensor<string, []>("linear_52_cast_fp16")];
            tensor<string, []> input_201_mode_0 = const()[name = tensor<string, []>("input_201_mode_0"), val = tensor<string, []>("EXACT")];
            tensor<fp16, [1, 512, 1536]> input_201_cast_fp16 = gelu(mode = input_201_mode_0, x = linear_52_cast_fp16)[name = tensor<string, []>("input_201_cast_fp16")];
            tensor<fp16, [384, 1536]> encoder_layer_8_output_dense_weight_to_fp16 = const()[name = tensor<string, []>("encoder_layer_8_output_dense_weight_to_fp16"), val = tensor<fp16, [384, 1536]>(BLOBFILE(path = tensor<string, []>("@model_path/weights/weight.bin"), offset = tensor<uint64, []>(54996608)))];
            tensor<fp16, [384]> encoder_layer_8_output_dense_bias_to_fp16 = const()[name = tensor<string, []>("encoder_layer_8_output_dense_bias_to_fp16"), val = tensor<fp16, [384]>(BLOBFILE(path = tensor<string, []>("@model_path/weights/weight.bin"), offset = tensor<uint64, []>(56176320)))];
            tensor<fp16, [1, 512, 384]> linear_53_cast_fp16 = linear(bias = encoder_layer_8_output_dense_bias_to_fp16, weight = encoder_layer_8_output_dense_weight_to_fp16, x = input_201_cast_fp16)[name = tensor<string, []>("linear_53_cast_fp16")];
            tensor<fp16, [1, 512, 384]> input_205_cast_fp16 = add(x = linear_53_cast_fp16, y = input_197_cast_fp16)[name = tensor<string, []>("input_205_cast_fp16")];
            tensor<int32, [1]> input_207_axes_0 = const()[name = tensor<string, []>("input_207_axes_0"), val = tensor<int32, [1]>([-1])];
            tensor<fp16, [384]> encoder_layer_8_output_LayerNorm_weight_to_fp16 = const()[name = tensor<string, []>("encoder_layer_8_output_LayerNorm_weight_to_fp16"), val = tensor<fp16, [384]>(BLOBFILE(path = tensor<string, []>("@model_path/weights/weight.bin"), offset = tensor<uint64, []>(56177152)))];
            tensor<fp16, [384]> encoder_layer_8_output_LayerNorm_bias_to_fp16 = const()[name = tensor<string, []>("encoder_layer_8_output_LayerNorm_bias_to_fp16"), val = tensor<fp16, [384]>(BLOBFILE(path = tensor<string, []>("@model_path/weights/weight.bin"), offset = tensor<uint64, []>(56177984)))];
            tensor<fp16, [1, 512, 384]> input_207_cast_fp16 = layer_norm(axes = input_207_axes_0, beta = encoder_layer_8_output_LayerNorm_bias_to_fp16, epsilon = var_853_to_fp16, gamma = encoder_layer_8_output_LayerNorm_weight_to_fp16, x = input_205_cast_fp16)[name = tensor<string, []>("input_207_cast_fp16")];
            tensor<int32, []> var_938 = const()[name = tensor<string, []>("op_938"), val = tensor<int32, []>(-1)];
            tensor<fp16, [384, 384]> encoder_layer_9_attention_self_query_weight_to_fp16 = const()[name = tensor<string, []>("encoder_layer_9_attention_self_query_weight_to_fp16"), val = tensor<fp16, [384, 384]>(BLOBFILE(path = tensor<string, []>("@model_path/weights/weight.bin"), offset = tensor<uint64, []>(56178816)))];
            tensor<fp16, [384]> encoder_layer_9_attention_self_query_bias_to_fp16 = const()[name = tensor<string, []>("encoder_layer_9_attention_self_query_bias_to_fp16"), val = tensor<fp16, [384]>(BLOBFILE(path = tensor<string, []>("@model_path/weights/weight.bin"), offset = tensor<uint64, []>(56473792)))];
            tensor<fp16, [1, 512, 384]> linear_54_cast_fp16 = linear(bias = encoder_layer_9_attention_self_query_bias_to_fp16, weight = encoder_layer_9_attention_self_query_weight_to_fp16, x = input_207_cast_fp16)[name = tensor<string, []>("linear_54_cast_fp16")];
            tensor<fp16, [384, 384]> encoder_layer_9_attention_self_key_weight_to_fp16 = const()[name = tensor<string, []>("encoder_layer_9_attention_self_key_weight_to_fp16"), val = tensor<fp16, [384, 384]>(BLOBFILE(path = tensor<string, []>("@model_path/weights/weight.bin"), offset = tensor<uint64, []>(56474624)))];
            tensor<fp16, [384]> encoder_layer_9_attention_self_key_bias_to_fp16 = const()[name = tensor<string, []>("encoder_layer_9_attention_self_key_bias_to_fp16"), val = tensor<fp16, [384]>(BLOBFILE(path = tensor<string, []>("@model_path/weights/weight.bin"), offset = tensor<uint64, []>(56769600)))];
            tensor<fp16, [1, 512, 384]> linear_55_cast_fp16 = linear(bias = encoder_layer_9_attention_self_key_bias_to_fp16, weight = encoder_layer_9_attention_self_key_weight_to_fp16, x = input_207_cast_fp16)[name = tensor<string, []>("linear_55_cast_fp16")];
            tensor<int32, [4]> var_963 = const()[name = tensor<string, []>("op_963"), val = tensor<int32, [4]>([1, 512, 12, 32])];
            tensor<fp16, [1, 512, 12, 32]> x_111_cast_fp16 = reshape(shape = var_963, x = linear_55_cast_fp16)[name = tensor<string, []>("x_111_cast_fp16")];
            tensor<fp16, [384, 384]> encoder_layer_9_attention_self_value_weight_to_fp16 = const()[name = tensor<string, []>("encoder_layer_9_attention_self_value_weight_to_fp16"), val = tensor<fp16, [384, 384]>(BLOBFILE(path = tensor<string, []>("@model_path/weights/weight.bin"), offset = tensor<uint64, []>(56770432)))];
            tensor<fp16, [384]> encoder_layer_9_attention_self_value_bias_to_fp16 = const()[name = tensor<string, []>("encoder_layer_9_attention_self_value_bias_to_fp16"), val = tensor<fp16, [384]>(BLOBFILE(path = tensor<string, []>("@model_path/weights/weight.bin"), offset = tensor<uint64, []>(57065408)))];
            tensor<fp16, [1, 512, 384]> linear_56_cast_fp16 = linear(bias = encoder_layer_9_attention_self_value_bias_to_fp16, weight = encoder_layer_9_attention_self_value_weight_to_fp16, x = input_207_cast_fp16)[name = tensor<string, []>("linear_56_cast_fp16")];
            tensor<int32, [4]> var_972 = const()[name = tensor<string, []>("op_972"), val = tensor<int32, [4]>([1, 512, 12, 32])];
            tensor<fp16, [1, 512, 12, 32]> x_115_cast_fp16 = reshape(shape = var_972, x = linear_56_cast_fp16)[name = tensor<string, []>("x_115_cast_fp16")];
            tensor<int32, [4]> var_974 = const()[name = tensor<string, []>("op_974"), val = tensor<int32, [4]>([0, 2, 1, 3])];
            tensor<int32, [4]> var_978 = const()[name = tensor<string, []>("op_978"), val = tensor<int32, [4]>([1, 512, 12, 32])];
            tensor<fp16, [1, 512, 12, 32]> x_119_cast_fp16 = reshape(shape = var_978, x = linear_54_cast_fp16)[name = tensor<string, []>("x_119_cast_fp16")];
            tensor<bool, []> attention_scores_37_transpose_x_0 = const()[name = tensor<string, []>("attention_scores_37_transpose_x_0"), val = tensor<bool, []>(false)];
            tensor<bool, []> attention_scores_37_transpose_y_0 = const()[name = tensor<string, []>("attention_scores_37_transpose_y_0"), val = tensor<bool, []>(false)];
            tensor<int32, [4]> transpose_54_perm_0 = const()[name = tensor<string, []>("transpose_54_perm_0"), val = tensor<int32, [4]>([0, 2, -3, -1])];
            tensor<int32, [4]> transpose_55_perm_0 = const()[name = tensor<string, []>("transpose_55_perm_0"), val = tensor<int32, [4]>([0, 2, -1, -3])];
            tensor<fp16, [1, 12, 32, 512]> transpose_55 = transpose(perm = transpose_55_perm_0, x = x_111_cast_fp16)[name = tensor<string, []>("transpose_69")];
            tensor<fp16, [1, 12, 512, 32]> transpose_54 = transpose(perm = transpose_54_perm_0, x = x_119_cast_fp16)[name = tensor<string, []>("transpose_70")];
            tensor<fp16, [1, 12, 512, 512]> attention_scores_37_cast_fp16 = matmul(transpose_x = attention_scores_37_transpose_x_0, transpose_y = attention_scores_37_transpose_y_0, x = transpose_54, y = transpose_55)[name = tensor<string, []>("attention_scores_37_cast_fp16")];
            tensor<fp16, []> _inversed_attention_scores_39_y_0_to_fp16 = const()[name = tensor<string, []>("_inversed_attention_scores_39_y_0_to_fp16"), val = tensor<fp16, []>(0x1.6ap-3)];
            tensor<fp16, [1, 12, 512, 512]> _inversed_attention_scores_39_cast_fp16 = mul(x = attention_scores_37_cast_fp16, y = _inversed_attention_scores_39_y_0_to_fp16)[name = tensor<string, []>("_inversed_attention_scores_39_cast_fp16")];
            tensor<fp16, [1, 12, 512, 512]> input_209_cast_fp16 = add(x = _inversed_attention_scores_39_cast_fp16, y = attention_mask_cast_fp16)[name = tensor<string, []>("input_209_cast_fp16")];
            tensor<fp16, [1, 12, 512, 512]> input_211_cast_fp16 = softmax(axis = var_938, x = input_209_cast_fp16)[name = tensor<string, []>("input_211_cast_fp16")];
            tensor<bool, []> context_layer_37_transpose_x_0 = const()[name = tensor<string, []>("context_layer_37_transpose_x_0"), val = tensor<bool, []>(false)];
            tensor<bool, []> context_layer_37_transpose_y_0 = const()[name = tensor<string, []>("context_layer_37_transpose_y_0"), val = tensor<bool, []>(false)];
            tensor<fp16, [1, 12, 512, 32]> value_layer_19_cast_fp16 = transpose(perm = var_974, x = x_115_cast_fp16)[name = tensor<string, []>("transpose_71")];
            tensor<fp16, [1, 12, 512, 32]> context_layer_37_cast_fp16 = matmul(transpose_x = context_layer_37_transpose_x_0, transpose_y = context_layer_37_transpose_y_0, x = input_211_cast_fp16, y = value_layer_19_cast_fp16)[name = tensor<string, []>("context_layer_37_cast_fp16")];
            tensor<int32, [4]> var_990 = const()[name = tensor<string, []>("op_990"), val = tensor<int32, [4]>([0, 2, 1, 3])];
            tensor<int32, [3]> var_995 = const()[name = tensor<string, []>("op_995"), val = tensor<int32, [3]>([1, 512, 384])];
            tensor<fp16, [1, 512, 12, 32]> var_991_cast_fp16 = transpose(perm = var_990, x = context_layer_37_cast_fp16)[name = tensor<string, []>("transpose_68")];
            tensor<fp16, [1, 512, 384]> input_213_cast_fp16 = reshape(shape = var_995, x = var_991_cast_fp16)[name = tensor<string, []>("input_213_cast_fp16")];
            tensor<fp16, [384, 384]> encoder_layer_9_attention_output_dense_weight_to_fp16 = const()[name = tensor<string, []>("encoder_layer_9_attention_output_dense_weight_to_fp16"), val = tensor<fp16, [384, 384]>(BLOBFILE(path = tensor<string, []>("@model_path/weights/weight.bin"), offset = tensor<uint64, []>(57066240)))];
            tensor<fp16, [384]> encoder_layer_9_attention_output_dense_bias_to_fp16 = const()[name = tensor<string, []>("encoder_layer_9_attention_output_dense_bias_to_fp16"), val = tensor<fp16, [384]>(BLOBFILE(path = tensor<string, []>("@model_path/weights/weight.bin"), offset = tensor<uint64, []>(57361216)))];
            tensor<fp16, [1, 512, 384]> linear_57_cast_fp16 = linear(bias = encoder_layer_9_attention_output_dense_bias_to_fp16, weight = encoder_layer_9_attention_output_dense_weight_to_fp16, x = input_213_cast_fp16)[name = tensor<string, []>("linear_57_cast_fp16")];
            tensor<fp16, [1, 512, 384]> input_217_cast_fp16 = add(x = linear_57_cast_fp16, y = input_207_cast_fp16)[name = tensor<string, []>("input_217_cast_fp16")];
            tensor<int32, [1]> input_219_axes_0 = const()[name = tensor<string, []>("input_219_axes_0"), val = tensor<int32, [1]>([-1])];
            tensor<fp16, [384]> encoder_layer_9_attention_output_LayerNorm_weight_to_fp16 = const()[name = tensor<string, []>("encoder_layer_9_attention_output_LayerNorm_weight_to_fp16"), val = tensor<fp16, [384]>(BLOBFILE(path = tensor<string, []>("@model_path/weights/weight.bin"), offset = tensor<uint64, []>(57362048)))];
            tensor<fp16, [384]> encoder_layer_9_attention_output_LayerNorm_bias_to_fp16 = const()[name = tensor<string, []>("encoder_layer_9_attention_output_LayerNorm_bias_to_fp16"), val = tensor<fp16, [384]>(BLOBFILE(path = tensor<string, []>("@model_path/weights/weight.bin"), offset = tensor<uint64, []>(57362880)))];
            tensor<fp16, []> var_945_to_fp16 = const()[name = tensor<string, []>("op_945_to_fp16"), val = tensor<fp16, []>(0x1p-24)];
            tensor<fp16, [1, 512, 384]> input_219_cast_fp16 = layer_norm(axes = input_219_axes_0, beta = encoder_layer_9_attention_output_LayerNorm_bias_to_fp16, epsilon = var_945_to_fp16, gamma = encoder_layer_9_attention_output_LayerNorm_weight_to_fp16, x = input_217_cast_fp16)[name = tensor<string, []>("input_219_cast_fp16")];
            tensor<fp16, [1536, 384]> encoder_layer_9_intermediate_dense_weight_to_fp16 = const()[name = tensor<string, []>("encoder_layer_9_intermediate_dense_weight_to_fp16"), val = tensor<fp16, [1536, 384]>(BLOBFILE(path = tensor<string, []>("@model_path/weights/weight.bin"), offset = tensor<uint64, []>(57363712)))];
            tensor<fp16, [1536]> encoder_layer_9_intermediate_dense_bias_to_fp16 = const()[name = tensor<string, []>("encoder_layer_9_intermediate_dense_bias_to_fp16"), val = tensor<fp16, [1536]>(BLOBFILE(path = tensor<string, []>("@model_path/weights/weight.bin"), offset = tensor<uint64, []>(58543424)))];
            tensor<fp16, [1, 512, 1536]> linear_58_cast_fp16 = linear(bias = encoder_layer_9_intermediate_dense_bias_to_fp16, weight = encoder_layer_9_intermediate_dense_weight_to_fp16, x = input_219_cast_fp16)[name = tensor<string, []>("linear_58_cast_fp16")];
            tensor<string, []> input_223_mode_0 = const()[name = tensor<string, []>("input_223_mode_0"), val = tensor<string, []>("EXACT")];
            tensor<fp16, [1, 512, 1536]> input_223_cast_fp16 = gelu(mode = input_223_mode_0, x = linear_58_cast_fp16)[name = tensor<string, []>("input_223_cast_fp16")];
            tensor<fp16, [384, 1536]> encoder_layer_9_output_dense_weight_to_fp16 = const()[name = tensor<string, []>("encoder_layer_9_output_dense_weight_to_fp16"), val = tensor<fp16, [384, 1536]>(BLOBFILE(path = tensor<string, []>("@model_path/weights/weight.bin"), offset = tensor<uint64, []>(58546560)))];
            tensor<fp16, [384]> encoder_layer_9_output_dense_bias_to_fp16 = const()[name = tensor<string, []>("encoder_layer_9_output_dense_bias_to_fp16"), val = tensor<fp16, [384]>(BLOBFILE(path = tensor<string, []>("@model_path/weights/weight.bin"), offset = tensor<uint64, []>(59726272)))];
            tensor<fp16, [1, 512, 384]> linear_59_cast_fp16 = linear(bias = encoder_layer_9_output_dense_bias_to_fp16, weight = encoder_layer_9_output_dense_weight_to_fp16, x = input_223_cast_fp16)[name = tensor<string, []>("linear_59_cast_fp16")];
            tensor<fp16, [1, 512, 384]> input_227_cast_fp16 = add(x = linear_59_cast_fp16, y = input_219_cast_fp16)[name = tensor<string, []>("input_227_cast_fp16")];
            tensor<int32, [1]> input_229_axes_0 = const()[name = tensor<string, []>("input_229_axes_0"), val = tensor<int32, [1]>([-1])];
            tensor<fp16, [384]> encoder_layer_9_output_LayerNorm_weight_to_fp16 = const()[name = tensor<string, []>("encoder_layer_9_output_LayerNorm_weight_to_fp16"), val = tensor<fp16, [384]>(BLOBFILE(path = tensor<string, []>("@model_path/weights/weight.bin"), offset = tensor<uint64, []>(59727104)))];
            tensor<fp16, [384]> encoder_layer_9_output_LayerNorm_bias_to_fp16 = const()[name = tensor<string, []>("encoder_layer_9_output_LayerNorm_bias_to_fp16"), val = tensor<fp16, [384]>(BLOBFILE(path = tensor<string, []>("@model_path/weights/weight.bin"), offset = tensor<uint64, []>(59727936)))];
            tensor<fp16, [1, 512, 384]> input_229_cast_fp16 = layer_norm(axes = input_229_axes_0, beta = encoder_layer_9_output_LayerNorm_bias_to_fp16, epsilon = var_945_to_fp16, gamma = encoder_layer_9_output_LayerNorm_weight_to_fp16, x = input_227_cast_fp16)[name = tensor<string, []>("input_229_cast_fp16")];
            tensor<int32, []> var_1030 = const()[name = tensor<string, []>("op_1030"), val = tensor<int32, []>(-1)];
            tensor<fp16, [384, 384]> encoder_layer_10_attention_self_query_weight_to_fp16 = const()[name = tensor<string, []>("encoder_layer_10_attention_self_query_weight_to_fp16"), val = tensor<fp16, [384, 384]>(BLOBFILE(path = tensor<string, []>("@model_path/weights/weight.bin"), offset = tensor<uint64, []>(59728768)))];
            tensor<fp16, [384]> encoder_layer_10_attention_self_query_bias_to_fp16 = const()[name = tensor<string, []>("encoder_layer_10_attention_self_query_bias_to_fp16"), val = tensor<fp16, [384]>(BLOBFILE(path = tensor<string, []>("@model_path/weights/weight.bin"), offset = tensor<uint64, []>(60023744)))];
            tensor<fp16, [1, 512, 384]> linear_60_cast_fp16 = linear(bias = encoder_layer_10_attention_self_query_bias_to_fp16, weight = encoder_layer_10_attention_self_query_weight_to_fp16, x = input_229_cast_fp16)[name = tensor<string, []>("linear_60_cast_fp16")];
            tensor<fp16, [384, 384]> encoder_layer_10_attention_self_key_weight_to_fp16 = const()[name = tensor<string, []>("encoder_layer_10_attention_self_key_weight_to_fp16"), val = tensor<fp16, [384, 384]>(BLOBFILE(path = tensor<string, []>("@model_path/weights/weight.bin"), offset = tensor<uint64, []>(60024576)))];
            tensor<fp16, [384]> encoder_layer_10_attention_self_key_bias_to_fp16 = const()[name = tensor<string, []>("encoder_layer_10_attention_self_key_bias_to_fp16"), val = tensor<fp16, [384]>(BLOBFILE(path = tensor<string, []>("@model_path/weights/weight.bin"), offset = tensor<uint64, []>(60319552)))];
            tensor<fp16, [1, 512, 384]> linear_61_cast_fp16 = linear(bias = encoder_layer_10_attention_self_key_bias_to_fp16, weight = encoder_layer_10_attention_self_key_weight_to_fp16, x = input_229_cast_fp16)[name = tensor<string, []>("linear_61_cast_fp16")];
            tensor<int32, [4]> var_1055 = const()[name = tensor<string, []>("op_1055"), val = tensor<int32, [4]>([1, 512, 12, 32])];
            tensor<fp16, [1, 512, 12, 32]> x_123_cast_fp16 = reshape(shape = var_1055, x = linear_61_cast_fp16)[name = tensor<string, []>("x_123_cast_fp16")];
            tensor<fp16, [384, 384]> encoder_layer_10_attention_self_value_weight_to_fp16 = const()[name = tensor<string, []>("encoder_layer_10_attention_self_value_weight_to_fp16"), val = tensor<fp16, [384, 384]>(BLOBFILE(path = tensor<string, []>("@model_path/weights/weight.bin"), offset = tensor<uint64, []>(60320384)))];
            tensor<fp16, [384]> encoder_layer_10_attention_self_value_bias_to_fp16 = const()[name = tensor<string, []>("encoder_layer_10_attention_self_value_bias_to_fp16"), val = tensor<fp16, [384]>(BLOBFILE(path = tensor<string, []>("@model_path/weights/weight.bin"), offset = tensor<uint64, []>(60615360)))];
            tensor<fp16, [1, 512, 384]> linear_62_cast_fp16 = linear(bias = encoder_layer_10_attention_self_value_bias_to_fp16, weight = encoder_layer_10_attention_self_value_weight_to_fp16, x = input_229_cast_fp16)[name = tensor<string, []>("linear_62_cast_fp16")];
            tensor<int32, [4]> var_1064 = const()[name = tensor<string, []>("op_1064"), val = tensor<int32, [4]>([1, 512, 12, 32])];
            tensor<fp16, [1, 512, 12, 32]> x_127_cast_fp16 = reshape(shape = var_1064, x = linear_62_cast_fp16)[name = tensor<string, []>("x_127_cast_fp16")];
            tensor<int32, [4]> var_1066 = const()[name = tensor<string, []>("op_1066"), val = tensor<int32, [4]>([0, 2, 1, 3])];
            tensor<int32, [4]> var_1070 = const()[name = tensor<string, []>("op_1070"), val = tensor<int32, [4]>([1, 512, 12, 32])];
            tensor<fp16, [1, 512, 12, 32]> x_131_cast_fp16 = reshape(shape = var_1070, x = linear_60_cast_fp16)[name = tensor<string, []>("x_131_cast_fp16")];
            tensor<bool, []> attention_scores_41_transpose_x_0 = const()[name = tensor<string, []>("attention_scores_41_transpose_x_0"), val = tensor<bool, []>(false)];
            tensor<bool, []> attention_scores_41_transpose_y_0 = const()[name = tensor<string, []>("attention_scores_41_transpose_y_0"), val = tensor<bool, []>(false)];
            tensor<int32, [4]> transpose_56_perm_0 = const()[name = tensor<string, []>("transpose_56_perm_0"), val = tensor<int32, [4]>([0, 2, -3, -1])];
            tensor<int32, [4]> transpose_57_perm_0 = const()[name = tensor<string, []>("transpose_57_perm_0"), val = tensor<int32, [4]>([0, 2, -1, -3])];
            tensor<fp16, [1, 12, 32, 512]> transpose_57 = transpose(perm = transpose_57_perm_0, x = x_123_cast_fp16)[name = tensor<string, []>("transpose_65")];
            tensor<fp16, [1, 12, 512, 32]> transpose_56 = transpose(perm = transpose_56_perm_0, x = x_131_cast_fp16)[name = tensor<string, []>("transpose_66")];
            tensor<fp16, [1, 12, 512, 512]> attention_scores_41_cast_fp16 = matmul(transpose_x = attention_scores_41_transpose_x_0, transpose_y = attention_scores_41_transpose_y_0, x = transpose_56, y = transpose_57)[name = tensor<string, []>("attention_scores_41_cast_fp16")];
            tensor<fp16, []> _inversed_attention_scores_43_y_0_to_fp16 = const()[name = tensor<string, []>("_inversed_attention_scores_43_y_0_to_fp16"), val = tensor<fp16, []>(0x1.6ap-3)];
            tensor<fp16, [1, 12, 512, 512]> _inversed_attention_scores_43_cast_fp16 = mul(x = attention_scores_41_cast_fp16, y = _inversed_attention_scores_43_y_0_to_fp16)[name = tensor<string, []>("_inversed_attention_scores_43_cast_fp16")];
            tensor<fp16, [1, 12, 512, 512]> input_231_cast_fp16 = add(x = _inversed_attention_scores_43_cast_fp16, y = attention_mask_cast_fp16)[name = tensor<string, []>("input_231_cast_fp16")];
            tensor<fp16, [1, 12, 512, 512]> input_233_cast_fp16 = softmax(axis = var_1030, x = input_231_cast_fp16)[name = tensor<string, []>("input_233_cast_fp16")];
            tensor<bool, []> context_layer_41_transpose_x_0 = const()[name = tensor<string, []>("context_layer_41_transpose_x_0"), val = tensor<bool, []>(false)];
            tensor<bool, []> context_layer_41_transpose_y_0 = const()[name = tensor<string, []>("context_layer_41_transpose_y_0"), val = tensor<bool, []>(false)];
            tensor<fp16, [1, 12, 512, 32]> value_layer_21_cast_fp16 = transpose(perm = var_1066, x = x_127_cast_fp16)[name = tensor<string, []>("transpose_67")];
            tensor<fp16, [1, 12, 512, 32]> context_layer_41_cast_fp16 = matmul(transpose_x = context_layer_41_transpose_x_0, transpose_y = context_layer_41_transpose_y_0, x = input_233_cast_fp16, y = value_layer_21_cast_fp16)[name = tensor<string, []>("context_layer_41_cast_fp16")];
            tensor<int32, [4]> var_1082 = const()[name = tensor<string, []>("op_1082"), val = tensor<int32, [4]>([0, 2, 1, 3])];
            tensor<int32, [3]> var_1087 = const()[name = tensor<string, []>("op_1087"), val = tensor<int32, [3]>([1, 512, 384])];
            tensor<fp16, [1, 512, 12, 32]> var_1083_cast_fp16 = transpose(perm = var_1082, x = context_layer_41_cast_fp16)[name = tensor<string, []>("transpose_64")];
            tensor<fp16, [1, 512, 384]> input_235_cast_fp16 = reshape(shape = var_1087, x = var_1083_cast_fp16)[name = tensor<string, []>("input_235_cast_fp16")];
            tensor<fp16, [384, 384]> encoder_layer_10_attention_output_dense_weight_to_fp16 = const()[name = tensor<string, []>("encoder_layer_10_attention_output_dense_weight_to_fp16"), val = tensor<fp16, [384, 384]>(BLOBFILE(path = tensor<string, []>("@model_path/weights/weight.bin"), offset = tensor<uint64, []>(60616192)))];
            tensor<fp16, [384]> encoder_layer_10_attention_output_dense_bias_to_fp16 = const()[name = tensor<string, []>("encoder_layer_10_attention_output_dense_bias_to_fp16"), val = tensor<fp16, [384]>(BLOBFILE(path = tensor<string, []>("@model_path/weights/weight.bin"), offset = tensor<uint64, []>(60911168)))];
            tensor<fp16, [1, 512, 384]> linear_63_cast_fp16 = linear(bias = encoder_layer_10_attention_output_dense_bias_to_fp16, weight = encoder_layer_10_attention_output_dense_weight_to_fp16, x = input_235_cast_fp16)[name = tensor<string, []>("linear_63_cast_fp16")];
            tensor<fp16, [1, 512, 384]> input_239_cast_fp16 = add(x = linear_63_cast_fp16, y = input_229_cast_fp16)[name = tensor<string, []>("input_239_cast_fp16")];
            tensor<int32, [1]> input_241_axes_0 = const()[name = tensor<string, []>("input_241_axes_0"), val = tensor<int32, [1]>([-1])];
            tensor<fp16, [384]> encoder_layer_10_attention_output_LayerNorm_weight_to_fp16 = const()[name = tensor<string, []>("encoder_layer_10_attention_output_LayerNorm_weight_to_fp16"), val = tensor<fp16, [384]>(BLOBFILE(path = tensor<string, []>("@model_path/weights/weight.bin"), offset = tensor<uint64, []>(60912000)))];
            tensor<fp16, [384]> encoder_layer_10_attention_output_LayerNorm_bias_to_fp16 = const()[name = tensor<string, []>("encoder_layer_10_attention_output_LayerNorm_bias_to_fp16"), val = tensor<fp16, [384]>(BLOBFILE(path = tensor<string, []>("@model_path/weights/weight.bin"), offset = tensor<uint64, []>(60912832)))];
            tensor<fp16, []> var_1037_to_fp16 = const()[name = tensor<string, []>("op_1037_to_fp16"), val = tensor<fp16, []>(0x1p-24)];
            tensor<fp16, [1, 512, 384]> input_241_cast_fp16 = layer_norm(axes = input_241_axes_0, beta = encoder_layer_10_attention_output_LayerNorm_bias_to_fp16, epsilon = var_1037_to_fp16, gamma = encoder_layer_10_attention_output_LayerNorm_weight_to_fp16, x = input_239_cast_fp16)[name = tensor<string, []>("input_241_cast_fp16")];
            tensor<fp16, [1536, 384]> encoder_layer_10_intermediate_dense_weight_to_fp16 = const()[name = tensor<string, []>("encoder_layer_10_intermediate_dense_weight_to_fp16"), val = tensor<fp16, [1536, 384]>(BLOBFILE(path = tensor<string, []>("@model_path/weights/weight.bin"), offset = tensor<uint64, []>(60913664)))];
            tensor<fp16, [1536]> encoder_layer_10_intermediate_dense_bias_to_fp16 = const()[name = tensor<string, []>("encoder_layer_10_intermediate_dense_bias_to_fp16"), val = tensor<fp16, [1536]>(BLOBFILE(path = tensor<string, []>("@model_path/weights/weight.bin"), offset = tensor<uint64, []>(62093376)))];
            tensor<fp16, [1, 512, 1536]> linear_64_cast_fp16 = linear(bias = encoder_layer_10_intermediate_dense_bias_to_fp16, weight = encoder_layer_10_intermediate_dense_weight_to_fp16, x = input_241_cast_fp16)[name = tensor<string, []>("linear_64_cast_fp16")];
            tensor<string, []> input_245_mode_0 = const()[name = tensor<string, []>("input_245_mode_0"), val = tensor<string, []>("EXACT")];
            tensor<fp16, [1, 512, 1536]> input_245_cast_fp16 = gelu(mode = input_245_mode_0, x = linear_64_cast_fp16)[name = tensor<string, []>("input_245_cast_fp16")];
            tensor<fp16, [384, 1536]> encoder_layer_10_output_dense_weight_to_fp16 = const()[name = tensor<string, []>("encoder_layer_10_output_dense_weight_to_fp16"), val = tensor<fp16, [384, 1536]>(BLOBFILE(path = tensor<string, []>("@model_path/weights/weight.bin"), offset = tensor<uint64, []>(62096512)))];
            tensor<fp16, [384]> encoder_layer_10_output_dense_bias_to_fp16 = const()[name = tensor<string, []>("encoder_layer_10_output_dense_bias_to_fp16"), val = tensor<fp16, [384]>(BLOBFILE(path = tensor<string, []>("@model_path/weights/weight.bin"), offset = tensor<uint64, []>(63276224)))];
            tensor<fp16, [1, 512, 384]> linear_65_cast_fp16 = linear(bias = encoder_layer_10_output_dense_bias_to_fp16, weight = encoder_layer_10_output_dense_weight_to_fp16, x = input_245_cast_fp16)[name = tensor<string, []>("linear_65_cast_fp16")];
            tensor<fp16, [1, 512, 384]> input_249_cast_fp16 = add(x = linear_65_cast_fp16, y = input_241_cast_fp16)[name = tensor<string, []>("input_249_cast_fp16")];
            tensor<int32, [1]> input_251_axes_0 = const()[name = tensor<string, []>("input_251_axes_0"), val = tensor<int32, [1]>([-1])];
            tensor<fp16, [384]> encoder_layer_10_output_LayerNorm_weight_to_fp16 = const()[name = tensor<string, []>("encoder_layer_10_output_LayerNorm_weight_to_fp16"), val = tensor<fp16, [384]>(BLOBFILE(path = tensor<string, []>("@model_path/weights/weight.bin"), offset = tensor<uint64, []>(63277056)))];
            tensor<fp16, [384]> encoder_layer_10_output_LayerNorm_bias_to_fp16 = const()[name = tensor<string, []>("encoder_layer_10_output_LayerNorm_bias_to_fp16"), val = tensor<fp16, [384]>(BLOBFILE(path = tensor<string, []>("@model_path/weights/weight.bin"), offset = tensor<uint64, []>(63277888)))];
            tensor<fp16, [1, 512, 384]> input_251_cast_fp16 = layer_norm(axes = input_251_axes_0, beta = encoder_layer_10_output_LayerNorm_bias_to_fp16, epsilon = var_1037_to_fp16, gamma = encoder_layer_10_output_LayerNorm_weight_to_fp16, x = input_249_cast_fp16)[name = tensor<string, []>("input_251_cast_fp16")];
            tensor<int32, []> var_1122 = const()[name = tensor<string, []>("op_1122"), val = tensor<int32, []>(-1)];
            tensor<fp16, [384, 384]> encoder_layer_11_attention_self_query_weight_to_fp16 = const()[name = tensor<string, []>("encoder_layer_11_attention_self_query_weight_to_fp16"), val = tensor<fp16, [384, 384]>(BLOBFILE(path = tensor<string, []>("@model_path/weights/weight.bin"), offset = tensor<uint64, []>(63278720)))];
            tensor<fp16, [384]> encoder_layer_11_attention_self_query_bias_to_fp16 = const()[name = tensor<string, []>("encoder_layer_11_attention_self_query_bias_to_fp16"), val = tensor<fp16, [384]>(BLOBFILE(path = tensor<string, []>("@model_path/weights/weight.bin"), offset = tensor<uint64, []>(63573696)))];
            tensor<fp16, [1, 512, 384]> linear_66_cast_fp16 = linear(bias = encoder_layer_11_attention_self_query_bias_to_fp16, weight = encoder_layer_11_attention_self_query_weight_to_fp16, x = input_251_cast_fp16)[name = tensor<string, []>("linear_66_cast_fp16")];
            tensor<fp16, [384, 384]> encoder_layer_11_attention_self_key_weight_to_fp16 = const()[name = tensor<string, []>("encoder_layer_11_attention_self_key_weight_to_fp16"), val = tensor<fp16, [384, 384]>(BLOBFILE(path = tensor<string, []>("@model_path/weights/weight.bin"), offset = tensor<uint64, []>(63574528)))];
            tensor<fp16, [384]> encoder_layer_11_attention_self_key_bias_to_fp16 = const()[name = tensor<string, []>("encoder_layer_11_attention_self_key_bias_to_fp16"), val = tensor<fp16, [384]>(BLOBFILE(path = tensor<string, []>("@model_path/weights/weight.bin"), offset = tensor<uint64, []>(63869504)))];
            tensor<fp16, [1, 512, 384]> linear_67_cast_fp16 = linear(bias = encoder_layer_11_attention_self_key_bias_to_fp16, weight = encoder_layer_11_attention_self_key_weight_to_fp16, x = input_251_cast_fp16)[name = tensor<string, []>("linear_67_cast_fp16")];
            tensor<int32, [4]> var_1147 = const()[name = tensor<string, []>("op_1147"), val = tensor<int32, [4]>([1, 512, 12, 32])];
            tensor<fp16, [1, 512, 12, 32]> x_135_cast_fp16 = reshape(shape = var_1147, x = linear_67_cast_fp16)[name = tensor<string, []>("x_135_cast_fp16")];
            tensor<fp16, [384, 384]> encoder_layer_11_attention_self_value_weight_to_fp16 = const()[name = tensor<string, []>("encoder_layer_11_attention_self_value_weight_to_fp16"), val = tensor<fp16, [384, 384]>(BLOBFILE(path = tensor<string, []>("@model_path/weights/weight.bin"), offset = tensor<uint64, []>(63870336)))];
            tensor<fp16, [384]> encoder_layer_11_attention_self_value_bias_to_fp16 = const()[name = tensor<string, []>("encoder_layer_11_attention_self_value_bias_to_fp16"), val = tensor<fp16, [384]>(BLOBFILE(path = tensor<string, []>("@model_path/weights/weight.bin"), offset = tensor<uint64, []>(64165312)))];
            tensor<fp16, [1, 512, 384]> linear_68_cast_fp16 = linear(bias = encoder_layer_11_attention_self_value_bias_to_fp16, weight = encoder_layer_11_attention_self_value_weight_to_fp16, x = input_251_cast_fp16)[name = tensor<string, []>("linear_68_cast_fp16")];
            tensor<int32, [4]> var_1156 = const()[name = tensor<string, []>("op_1156"), val = tensor<int32, [4]>([1, 512, 12, 32])];
            tensor<fp16, [1, 512, 12, 32]> x_139_cast_fp16 = reshape(shape = var_1156, x = linear_68_cast_fp16)[name = tensor<string, []>("x_139_cast_fp16")];
            tensor<int32, [4]> var_1158 = const()[name = tensor<string, []>("op_1158"), val = tensor<int32, [4]>([0, 2, 1, 3])];
            tensor<int32, [4]> var_1162 = const()[name = tensor<string, []>("op_1162"), val = tensor<int32, [4]>([1, 512, 12, 32])];
            tensor<fp16, [1, 512, 12, 32]> x_cast_fp16 = reshape(shape = var_1162, x = linear_66_cast_fp16)[name = tensor<string, []>("x_cast_fp16")];
            tensor<bool, []> attention_scores_45_transpose_x_0 = const()[name = tensor<string, []>("attention_scores_45_transpose_x_0"), val = tensor<bool, []>(false)];
            tensor<bool, []> attention_scores_45_transpose_y_0 = const()[name = tensor<string, []>("attention_scores_45_transpose_y_0"), val = tensor<bool, []>(false)];
            tensor<int32, [4]> transpose_58_perm_0 = const()[name = tensor<string, []>("transpose_58_perm_0"), val = tensor<int32, [4]>([0, 2, -3, -1])];
            tensor<int32, [4]> transpose_59_perm_0 = const()[name = tensor<string, []>("transpose_59_perm_0"), val = tensor<int32, [4]>([0, 2, -1, -3])];
            tensor<fp16, [1, 12, 32, 512]> transpose_59 = transpose(perm = transpose_59_perm_0, x = x_135_cast_fp16)[name = tensor<string, []>("transpose_61")];
            tensor<fp16, [1, 12, 512, 32]> transpose_58 = transpose(perm = transpose_58_perm_0, x = x_cast_fp16)[name = tensor<string, []>("transpose_62")];
            tensor<fp16, [1, 12, 512, 512]> attention_scores_45_cast_fp16 = matmul(transpose_x = attention_scores_45_transpose_x_0, transpose_y = attention_scores_45_transpose_y_0, x = transpose_58, y = transpose_59)[name = tensor<string, []>("attention_scores_45_cast_fp16")];
            tensor<fp16, []> _inversed_attention_scores_y_0_to_fp16 = const()[name = tensor<string, []>("_inversed_attention_scores_y_0_to_fp16"), val = tensor<fp16, []>(0x1.6ap-3)];
            tensor<fp16, [1, 12, 512, 512]> _inversed_attention_scores_cast_fp16 = mul(x = attention_scores_45_cast_fp16, y = _inversed_attention_scores_y_0_to_fp16)[name = tensor<string, []>("_inversed_attention_scores_cast_fp16")];
            tensor<fp16, [1, 12, 512, 512]> input_253_cast_fp16 = add(x = _inversed_attention_scores_cast_fp16, y = attention_mask_cast_fp16)[name = tensor<string, []>("input_253_cast_fp16")];
            tensor<fp16, [1, 12, 512, 512]> input_255_cast_fp16 = softmax(axis = var_1122, x = input_253_cast_fp16)[name = tensor<string, []>("input_255_cast_fp16")];
            tensor<bool, []> context_layer_45_transpose_x_0 = const()[name = tensor<string, []>("context_layer_45_transpose_x_0"), val = tensor<bool, []>(false)];
            tensor<bool, []> context_layer_45_transpose_y_0 = const()[name = tensor<string, []>("context_layer_45_transpose_y_0"), val = tensor<bool, []>(false)];
            tensor<fp16, [1, 12, 512, 32]> value_layer_cast_fp16 = transpose(perm = var_1158, x = x_139_cast_fp16)[name = tensor<string, []>("transpose_63")];
            tensor<fp16, [1, 12, 512, 32]> context_layer_45_cast_fp16 = matmul(transpose_x = context_layer_45_transpose_x_0, transpose_y = context_layer_45_transpose_y_0, x = input_255_cast_fp16, y = value_layer_cast_fp16)[name = tensor<string, []>("context_layer_45_cast_fp16")];
            tensor<int32, [4]> var_1174 = const()[name = tensor<string, []>("op_1174"), val = tensor<int32, [4]>([0, 2, 1, 3])];
            tensor<int32, [3]> var_1179 = const()[name = tensor<string, []>("op_1179"), val = tensor<int32, [3]>([1, 512, 384])];
            tensor<fp16, [1, 512, 12, 32]> var_1175_cast_fp16 = transpose(perm = var_1174, x = context_layer_45_cast_fp16)[name = tensor<string, []>("transpose_60")];
            tensor<fp16, [1, 512, 384]> input_257_cast_fp16 = reshape(shape = var_1179, x = var_1175_cast_fp16)[name = tensor<string, []>("input_257_cast_fp16")];
            tensor<fp16, [384, 384]> encoder_layer_11_attention_output_dense_weight_to_fp16 = const()[name = tensor<string, []>("encoder_layer_11_attention_output_dense_weight_to_fp16"), val = tensor<fp16, [384, 384]>(BLOBFILE(path = tensor<string, []>("@model_path/weights/weight.bin"), offset = tensor<uint64, []>(64166144)))];
            tensor<fp16, [384]> encoder_layer_11_attention_output_dense_bias_to_fp16 = const()[name = tensor<string, []>("encoder_layer_11_attention_output_dense_bias_to_fp16"), val = tensor<fp16, [384]>(BLOBFILE(path = tensor<string, []>("@model_path/weights/weight.bin"), offset = tensor<uint64, []>(64461120)))];
            tensor<fp16, [1, 512, 384]> linear_69_cast_fp16 = linear(bias = encoder_layer_11_attention_output_dense_bias_to_fp16, weight = encoder_layer_11_attention_output_dense_weight_to_fp16, x = input_257_cast_fp16)[name = tensor<string, []>("linear_69_cast_fp16")];
            tensor<fp16, [1, 512, 384]> input_261_cast_fp16 = add(x = linear_69_cast_fp16, y = input_251_cast_fp16)[name = tensor<string, []>("input_261_cast_fp16")];
            tensor<int32, [1]> input_263_axes_0 = const()[name = tensor<string, []>("input_263_axes_0"), val = tensor<int32, [1]>([-1])];
            tensor<fp16, [384]> encoder_layer_11_attention_output_LayerNorm_weight_to_fp16 = const()[name = tensor<string, []>("encoder_layer_11_attention_output_LayerNorm_weight_to_fp16"), val = tensor<fp16, [384]>(BLOBFILE(path = tensor<string, []>("@model_path/weights/weight.bin"), offset = tensor<uint64, []>(64461952)))];
            tensor<fp16, [384]> encoder_layer_11_attention_output_LayerNorm_bias_to_fp16 = const()[name = tensor<string, []>("encoder_layer_11_attention_output_LayerNorm_bias_to_fp16"), val = tensor<fp16, [384]>(BLOBFILE(path = tensor<string, []>("@model_path/weights/weight.bin"), offset = tensor<uint64, []>(64462784)))];
            tensor<fp16, []> var_1129_to_fp16 = const()[name = tensor<string, []>("op_1129_to_fp16"), val = tensor<fp16, []>(0x1p-24)];
            tensor<fp16, [1, 512, 384]> input_263_cast_fp16 = layer_norm(axes = input_263_axes_0, beta = encoder_layer_11_attention_output_LayerNorm_bias_to_fp16, epsilon = var_1129_to_fp16, gamma = encoder_layer_11_attention_output_LayerNorm_weight_to_fp16, x = input_261_cast_fp16)[name = tensor<string, []>("input_263_cast_fp16")];
            tensor<fp16, [1536, 384]> encoder_layer_11_intermediate_dense_weight_to_fp16 = const()[name = tensor<string, []>("encoder_layer_11_intermediate_dense_weight_to_fp16"), val = tensor<fp16, [1536, 384]>(BLOBFILE(path = tensor<string, []>("@model_path/weights/weight.bin"), offset = tensor<uint64, []>(64463616)))];
            tensor<fp16, [1536]> encoder_layer_11_intermediate_dense_bias_to_fp16 = const()[name = tensor<string, []>("encoder_layer_11_intermediate_dense_bias_to_fp16"), val = tensor<fp16, [1536]>(BLOBFILE(path = tensor<string, []>("@model_path/weights/weight.bin"), offset = tensor<uint64, []>(65643328)))];
            tensor<fp16, [1, 512, 1536]> linear_70_cast_fp16 = linear(bias = encoder_layer_11_intermediate_dense_bias_to_fp16, weight = encoder_layer_11_intermediate_dense_weight_to_fp16, x = input_263_cast_fp16)[name = tensor<string, []>("linear_70_cast_fp16")];
            tensor<string, []> input_267_mode_0 = const()[name = tensor<string, []>("input_267_mode_0"), val = tensor<string, []>("EXACT")];
            tensor<fp16, [1, 512, 1536]> input_267_cast_fp16 = gelu(mode = input_267_mode_0, x = linear_70_cast_fp16)[name = tensor<string, []>("input_267_cast_fp16")];
            tensor<fp16, [384, 1536]> encoder_layer_11_output_dense_weight_to_fp16 = const()[name = tensor<string, []>("encoder_layer_11_output_dense_weight_to_fp16"), val = tensor<fp16, [384, 1536]>(BLOBFILE(path = tensor<string, []>("@model_path/weights/weight.bin"), offset = tensor<uint64, []>(65646464)))];
            tensor<fp16, [384]> encoder_layer_11_output_dense_bias_to_fp16 = const()[name = tensor<string, []>("encoder_layer_11_output_dense_bias_to_fp16"), val = tensor<fp16, [384]>(BLOBFILE(path = tensor<string, []>("@model_path/weights/weight.bin"), offset = tensor<uint64, []>(66826176)))];
            tensor<fp16, [1, 512, 384]> linear_71_cast_fp16 = linear(bias = encoder_layer_11_output_dense_bias_to_fp16, weight = encoder_layer_11_output_dense_weight_to_fp16, x = input_267_cast_fp16)[name = tensor<string, []>("linear_71_cast_fp16")];
            tensor<fp16, [1, 512, 384]> input_271_cast_fp16 = add(x = linear_71_cast_fp16, y = input_263_cast_fp16)[name = tensor<string, []>("input_271_cast_fp16")];
            tensor<int32, [1]> hidden_states_axes_0 = const()[name = tensor<string, []>("hidden_states_axes_0"), val = tensor<int32, [1]>([-1])];
            tensor<fp16, [384]> encoder_layer_11_output_LayerNorm_weight_to_fp16 = const()[name = tensor<string, []>("encoder_layer_11_output_LayerNorm_weight_to_fp16"), val = tensor<fp16, [384]>(BLOBFILE(path = tensor<string, []>("@model_path/weights/weight.bin"), offset = tensor<uint64, []>(66827008)))];
            tensor<fp16, [384]> encoder_layer_11_output_LayerNorm_bias_to_fp16 = const()[name = tensor<string, []>("encoder_layer_11_output_LayerNorm_bias_to_fp16"), val = tensor<fp16, [384]>(BLOBFILE(path = tensor<string, []>("@model_path/weights/weight.bin"), offset = tensor<uint64, []>(66827840)))];
            tensor<fp16, [1, 512, 384]> hidden_states_cast_fp16 = layer_norm(axes = hidden_states_axes_0, beta = encoder_layer_11_output_LayerNorm_bias_to_fp16, epsilon = var_1129_to_fp16, gamma = encoder_layer_11_output_LayerNorm_weight_to_fp16, x = input_271_cast_fp16)[name = tensor<string, []>("hidden_states_cast_fp16")];
            tensor<int32, [3]> var_1215_begin_0 = const()[name = tensor<string, []>("op_1215_begin_0"), val = tensor<int32, [3]>([0, 0, 0])];
            tensor<int32, [3]> var_1215_end_0 = const()[name = tensor<string, []>("op_1215_end_0"), val = tensor<int32, [3]>([1, 1, 384])];
            tensor<bool, [3]> var_1215_end_mask_0 = const()[name = tensor<string, []>("op_1215_end_mask_0"), val = tensor<bool, [3]>([true, false, true])];
            tensor<bool, [3]> var_1215_squeeze_mask_0 = const()[name = tensor<string, []>("op_1215_squeeze_mask_0"), val = tensor<bool, [3]>([false, true, false])];
            tensor<fp16, [1, 384]> var_1215_cast_fp16 = slice_by_index(begin = var_1215_begin_0, end = var_1215_end_0, end_mask = var_1215_end_mask_0, squeeze_mask = var_1215_squeeze_mask_0, x = hidden_states_cast_fp16)[name = tensor<string, []>("op_1215_cast_fp16")];
            tensor<int32, [1]> var_1223 = const()[name = tensor<string, []>("op_1223"), val = tensor<int32, [1]>([1])];
            tensor<bool, []> var_1224 = const()[name = tensor<string, []>("op_1224"), val = tensor<bool, []>(true)];
            tensor<fp16, [1, 1]> var_1226_cast_fp16 = reduce_l2_norm(axes = var_1223, keep_dims = var_1224, x = var_1215_cast_fp16)[name = tensor<string, []>("op_1226_cast_fp16")];
            tensor<fp16, []> var_1227_to_fp16 = const()[name = tensor<string, []>("op_1227_to_fp16"), val = tensor<fp16, []>(0x1p-24)];
            tensor<fp16, [1, 1]> var_1228_cast_fp16 = maximum(x = var_1226_cast_fp16, y = var_1227_to_fp16)[name = tensor<string, []>("op_1228_cast_fp16")];
            tensor<int32, [2]> denom_reps_0 = const()[name = tensor<string, []>("denom_reps_0"), val = tensor<int32, [2]>([1, 384])];
            tensor<fp16, [1, 384]> denom_cast_fp16 = tile(reps = denom_reps_0, x = var_1228_cast_fp16)[name = tensor<string, []>("denom_cast_fp16")];
            tensor<fp16, [1, 384]> sentence_embedding = real_div(x = var_1215_cast_fp16, y = denom_cast_fp16)[name = tensor<string, []>("op_1230_cast_fp16")];
        } -> (sentence_embedding);
}